pesosTipos.pth (torch, 494443 bytes, 10 tensors)

conv.weight f4 [5, 3, 3, 3]
00000000: 8d43 803c 5b1a 40be 2b01 acbd 2116 3bbe
00000010: b221 3d3e 34cf 0abe 5515 ebbd 482f a3bd
00000020: cd45 d53d e5ee 0dbe e89a 3c3e 7ec8 c3bd
00000030: 4f03 e8bd 8477 ad3d 3887 12be 605b 0f3e
00000040: 3e0f b03d d11d d73d e0ea 343e b9b6 28be
00000050: 8b01 243d 1f56 d9bd 605d 1a3d 6666 b83d
00000060: 3730 52bd 1f26 0539 a5d2 d8bb cf25 aabd
00000070: d1b1 0bbe a294 c63c 7a0e e73c 586c 4dbb
00000080: abd6 19be f6da 15bd 695e cfbd 6a48 813d
00000090: d7d8 473e fdb5 433c 0111 8f3c 6ea7 743d
000000a0: 3ebf b93a 59f8 0ebc 8d32 c13d d51a 8ebc
000000b0: 8908 193e 6302 d43c 4641 9c3d f7e7 1fbe
000000c0: 38e8 84bc 0122 9cbd 7406 c1bd b268 0bbd
000000d0: 206c 003e 43c9 3dbd 6461 883e 38eb 18be
000000e0: 099f 2ebf 40f0 8c3f 4420 8f3f 04d6 d3bd
000000f0: d9f0 943f ed0b a43f 90fd 053e a0f6 d13e
00000100: 758d 4d3d 5acc c1be f344 9f3f 8242 4c3f
00000110: aae0 82be 3183 6f3f 5c95 5b3f 782a a7be
00000120: 6cc4 573e b271 d7bd e149 8ebf fe6f 6b3f
00000130: 3655 0a3f 1036 3ebf 40f9 603f 0f2f 243f
00000140: c28e ddbe 0a5e 313f 1af7 cc3e 4636 68be
00000150: 7fa4 123f dce2 eb3e 7d64 18bd 80f9 933d
00000160: f0ef 913e 1f2a e13d 3458 1e3f e423 e53e
00000170: 8750 043c 5a47 1a3f 9019 b23e e81b 2bbe
00000180: 1d42 ba3c 9bac acbd 7919 52be 08d2 093f
00000190: f359 663e 8e80 99bd caed 1d3f 606e 1b3e
000001a0: 709b 78be 89c4 a83d b645 ab3d 286c a0be
000001b0: 6dc8 01be 49aa 8ebb fa8c 89be 9a79 5e3e
000001c0: d15c 46bd f62c 71be 020f 0c3f 3697 303e
000001d0: 7aaa 693a c62e dfbb 2e24 973d 02b7 163d
000001e0: 24d8 c13e 2cac 993e 517b fe3d 6ab3 0e3f
000001f0: e359 8c3e fc43 0cbe 1e09 41bd 1bb4 0fbe
00000200: 16ae 9ebe c763 4f3e 9faa f13d 3d4e e0bd
00000210: d5ef 7d3e 903f f3bc 6c69 c9bd
0.01565721 -0.18760054 -0.0839866 -0.1827016 0.18469885 -0.13555604 -0.11478678 -0.079680026
0.10413704 -0.13860662 0.18418467 -0.09559725 -0.11328756 0.084700614 -0.14309394 0.139997
0.08596657 0.10503734 0.17667723 -0.16475953 0.040040534 -0.106121294 0.037686706 0.09003906
-0.051315513 0.0001269807 -0.0066169077 -0.08307993 -0.1364205 0.024240796 0.028205145 -0.0031345095
-0.15023296 -0.03658577 -0.10125429 0.0631264 0.19516312 0.011945245 0.017464163 0.059729986
0.0014171374 -0.008726203 0.0943347 -0.017346779 0.14944662 0.025880044 0.076296374 -0.15615831
-0.016224012 -0.07623673 -0.09425059 -0.034035392 0.12541246 -0.046334516 0.26636803 -0.14933479
-0.6821142 1.1010818 1.1181722 -0.103435546 1.1636001 1.281614 0.13085008 0.41008472
0.050183732 -0.3785122 1.2442917 0.7978898 -0.2556203 0.9355956 0.8577478 -0.3264959
0.21071023 -0.105197325 -1.1116296 0.9196776 0.5403627 -0.7430124 0.87880325 0.64134306
-0.43272978 0.6928412 0.40032274 -0.22676954 0.5728225 0.46071517 -0.037205208 0.07225323
0.2850337 0.10994362 0.6185334 0.44753945 0.00807584 0.60265124 0.34785128 -0.16709864
0.022736603 -0.084313594 -0.2051753 0.5383611 0.2249525 -0.07495223 0.6169096 0.15178823
-0.24278045 0.08240611 0.08362906 -0.31332517 -0.12674113 -0.0043537957 -0.2686537 0.21726075
-0.04842836 -0.23552307 0.547104 0.17245182 0.00089136476 -0.0068109958 0.073799476 0.036795624
0.37860215 0.3001417 0.124258645 0.55742514 0.27412328 -0.13697809 -0.047127835 -0.14033549
-0.30992192 0.20252906 0.118001215 -0.10952423 0.2479852 -0.029693395 -0.09834561

conv.bias f4 [5]
00000000: 308a 67bc 5f89 82bc 19c3 1d3c 3671 00bc
00000010: ab33 4a3d
-0.014132068 -0.015934644 0.009629034 -0.007839492 0.04936568

conv2.weight f4 [3, 5, 3, 3]
00000000: 12d2 86bd c169 ac3c e58e ed3d b101 963d
00000010: 2973 6bbd efb3 fabd 857a 703c 3ec9 1dbd
00000020: a99d c5bd 9fc7 c23d c6fa d7bd 1bf7 823d
00000030: 0d13 403d f0a7 a03d 99a2 3c3c 0a3a 043e
00000040: c341 48bc 7af7 85bd 0df5 64be 307b e33e
00000050: 27db 2f3e c511 35be 4364 923e ac4a a23e
00000060: 10df c3be f010 513e 4440 053e 7422 a03c
00000070: 993c 313e f957 46bd 4edd bdbd d5f3 643e
00000080: 3d27 7d3e b03e 28be fe2b 403e 5d74 2e3e
00000090: ce55 00be d609 b53b b57b 443e 938d 4abe
000000a0: 514c 253e 6281 0c3e e3b9 123d 1ec9 013e
000000b0: 6795 493d 7c38 043e e7f6 c5bd 9893 183e
000000c0: 4194 5e3d bd19 aa3d 436d 07be bf76 07bd
000000d0: 5a23 22bd 8aae c0bd 8030 9a3d 9a0c 343c
000000e0: a722 603c 8c12 01be 9b13 debc 77e6 373d
000000f0: 87fb c4bd cf40 bfbc 4202 99bc b499 6abe
00000100: f2f5 a6be c7a6 383d e50f b2bd f03d 07be
00000110: 585f 953e f448 a43d 4530 fa3d 4b3d f43e
00000120: 2be5 c93d 287e f4bd aede a6bc 9a8c 9cbd
00000130: da66 54be fe36 613e ef6c 53bd 921f febd
00000140: 6492 8d3e 5b01 aebd 253b 9e3d 3635 173e
00000150: 5354 1bbd c522 0abd 2562 483e 8806 7a3d
00000160: b52f ed3d f98b 243e 3136 5a3c b48f 0e3c
00000170: 90ec 3e3d 1e72 143e a5a0 7e3d 0a9a 453d
00000180: c510 5fbd de2a 5abc 0449 afbd 50f5 8ebc
00000190: ca4b d73d 1636 0fbe 9ec6 c2bd 19fb 85bd
000001a0: de05 c53c 50ec 60bd 954a ce3d 98d2 edbc
000001b0: fc94 183f 6d90 9f3f 827c 34bf 7e73 9d3f
000001c0: fac2 2840 d716 c83e d250 fb3d f95b b43f
000001d0: 3f35 3a3e 95fc 31bf 034f 24be 52fb 26bf
000001e0: 754b 783d a0f6 3c3f 6f47 ccbd 5391 a33e
000001f0: 76ef 8d3f 3439 043e ce13 a93c 3a84 0d3f
00000200: 9775 543e 136e b03d 6679 313f 08b4 c93e
00000210: 3740 15be f05c f83d 3128 e7bd
-0.065830365 0.021046521 0.115995206 0.07324541 -0.057482872 -0.12241351 0.014677648 -0.038521998
-0.09649212 0.09510731 -0.10545878 0.06394788 0.04689317 0.078445315 0.011513376 0.12912765
-0.01222271 -0.06541343 -0.22359104 0.44429922 0.17173444 -0.1768256 0.2859212 0.31697595
-0.3825612 0.20416617 0.13012797 0.019547679 0.17308272 -0.04842374 -0.09270726 0.2235864
0.24722 -0.16430163 0.18766782 0.17036577 -0.12532732 0.005524854 0.19187815 -0.19780569
0.16142394 0.1372123 0.035821807 0.12674376 0.049214747 0.12912172 -0.096662335 0.14900053
0.054340605 0.083056904 -0.13225274 -0.03307223 -0.039584495 -0.09408291 0.07528782 0.010989333
0.013680137 -0.12604731 -0.027108958 0.044897523 -0.096182875 -0.023346333 -0.018677834 -0.22910196
-0.32609516 0.045080926 -0.08694438 -0.13207221 0.29174304 0.08021727 0.12216238 0.47703013
0.098581634 -0.11938125 -0.020369854 -0.07644005 -0.2074236 0.21993634 -0.05161756 -0.12408365
0.2765075 -0.08496352 0.07726125 0.14766392 -0.037922215 -0.033724565 0.19568689 0.061041385
0.11581365 0.1606902 0.013318584 0.008701254 0.046612322 0.14496657 0.06216492 0.048242606
-0.054459352 -0.013315884 -0.085588485 -0.017450958 0.105125025 -0.13985476 -0.095105395 -0.06542034
0.02405065 -0.054912865 0.10072819 -0.029031083 0.5960233 1.246595 -0.70502484 1.230087
2.6369004 0.39079925 0.122712746 1.4090568 0.18184374 -0.69526035 -0.16045766 -0.65227234
0.060618836 0.7381382 -0.099745624 0.3194681 1.1088703 0.12912446 0.020639326 0.55279887
0.20747982 0.08614745 0.69325864 0.39395165 -0.14575277 0.121271014 -0.11286963

conv2.bias f4 [3]
00000000: 1605 35be ba49 a13e 300c 9dbe
-0.17677721 0.3150156 -0.3067336

fc0.weight f4 [100, 528]
00000000: 8e9c 593c ce96 ce3c 4dea e03c 2752 1bbc
00000010: 7046 55bc 5f71 da3c 662a 4bbb 46aa e93c
00000020: 4372 2f3d 1dbe 023d e0eb 633c c636 493d
00000030: f37f 873c 6d54 453c 71b3 643c f74d 0abb
00000040: 10be 433c c76e 133d f851 d6bc f35d 033d
00000050: 818a 17bd fee7 2fbc ea61 833c b2b0 093d
00000060: 1bb8 c83c 8ef2 a73b 27a1 c8bb fa09 7fbb
00000070: 3a65 1a3d 51e8 493b bbce d93c d258 f03c
00000080: d0c5 14bd fc4a e6bb 2386 1abd 7cda c9bc
00000090: d740 aabc 5a3c ec3c 3966 ddbc 9ed6 edbc
000000a0: 0bd3 ce3b bdc6 a13c d717 15bd 5cac 0dbd
000000b0: 12a9 963c 7ced 0b3c fd5a e33b 29ad 313d
000000c0: 96aa 92bb c10d 8a3b 68ed f83c fa30 0ebc
000000d0: 1466 eebc b461 28bd 3031 833c 8481 36bb
000000e0: 5600 2e3a cf72 733c 6a27 35ba 1c5f 2abd
000000f0: e6a0 11bd 5017 833c a2fd 4c3d f856 0b3c
00000100: 5af9 8ebc fc5b 033c bc50 723b 795a 0abc
00000110: de67 1dbd 9701 04bd 2f44 823b 89fc 19bd
00000120: 5e15 a13c d05e b73b d014 54bb 0f17 413c
00000130: a386 37bc 96b3 15bd 3e54 503b efa2 1fbc
00000140: e586 2f3b 8df0 cfbc 2f01 fb3c a86e 7c3d
00000150: f5db 7cbc cfb1 e0bb 5593 c0bc 9c23 09bd
00000160: 9101 003d bcbf 3a3c 7fca b93b f9cb 183d
00000170: 701e 27bd 5d73 1ebb 2018 2b3c f04f dfbb
00000180: 5867 173d 340c cb3b 4e7e 253c dc90 d5bc
00000190: 22ee bfbc 7128 73bc 49bd c7bc bbb1 28bd
000001a0: 5719 2ebc eab8 dc3c c835 823d 3751 323d
000001b0: e46b dd3b c693 c5bc c111 a23b 3342 4abc
000001c0: b1a7 103d 4413 42b9 319a a0bc 1dd5 263d
000001d0: c2d5 5bba 6200 00bd c1e7 0f3c 7889 c5bc
000001e0: 6417 853c 9be9 8b3c 2bf8 ae3b edae 97bb
000001f0: 8ecc 013d f657 c9bc 4fb5 ecbc 1119 b4bc
00000200: 09f4 a7bc a8ba 18bd fcc0 7abb 78f4 ddbb
00000210: 2f95 e53b 5051 febc d536 a2bc b692 fb3c
00000220: c8ea c43c 29ea 5a3d 3765 ad3d 96fa 78bc
00000230: 248f e0bc 6075 ab3c 2b5c 403b c560 ccbc
00000240: 8a8e 323d 71c3 2b3d 1384 00bd 226a 18bd
00000250: 3c95 b9bc bee7 61bd ee8b cdbc 8470 673c
00000260: c8f2 67bd 68e2 0a3d 0280 643d b57c 5abd
00000270: 0085 dfbc d583 4b3c 4b1b 18bd 79d1 29bd
00000280: 3651 2ebd e0e6 cfbc c2c0 dabc dee7 c3bb
00000290: 6770 08bd 1d05 75bd b1d2 b4bb f7cd 15bd
000002a0: e304 5bbd ba50 993c 7f3c a2bc 47cf f2bc
000002b0: e036 09bd 164d 20bd 9873 1dbd 9ad1 66bc
000002c0: fda5 86b9 5050 1c3d 2297 0c3d 6d7f 8e3c
000002d0: 6996 ef3b 4f6e b8bc 0a64 4fbd 10f5 adbc
000002e0: 15b4 f5bb b614 60bc 6f9e c13c a774 ae3c
000002f0: 748a dd3c b281 043d c72e 103d d8d4 a2bc
00000300: 4063 e9bc 6aeb cd3c d69f 8cbc 4e80 fd3c
00000310: 9e00 e93c b2f6 773b 1706 07bc 9fcd 8abc
00000320: 37fd 0a3d 2c3c 93bc 5707 24bd af39 1fbd
00000330: ef92 2dbc 5bfe 0cbd c1f3 93bb 7f5e 133d
00000340: b618 08bc 0c99 77bc f885 913b 1fe8 cbbb
00000350: 939e 71bb 127d 4ebd f77a 633a c082 133d
00000360: 6b37 e0bc 1e66 30bd 66b7 4bbd 3f40 d43b
00000370: 0c62 143c 2118 8b3c 2747 1abd c5f8 bfbb
00000380: e54b 13bd 1957 8dbc 4fda 463d ad2a 18bd
00000390: 92fa bb3c c64b 24bd 5bc7 1bbd 1c4e a03c
000003a0: 4982 c93a ba7a 103d 2c49 42bc 68ca f0bc
000003b0: 04b6 473d c7d4 833c a140 2fbd 95c8 bfb9
000003c0: 7c37 d73c c87d de3c bd5b 4b3d 8f2c ecbb
000003d0: 73df 163d 1237 2fbd ea0b a2bc 37c1 a03c
000003e0: 9956 223d b353 a03c 96d8 283c 3dac 9dbc
000003f0: 7da2 7cbb f4e8 823c 6fa0 1abc f148 483c
0.013281954 0.025218394 0.027455473 -0.009480036 -0.013017282 0.026665388 -0.0031000613 0.028523576
0.042833578 0.031919587 0.013911217 0.0491245 0.016540503 0.012044054 0.013958798 -0.00211036
0.01194717 0.035994317 -0.026162133 0.03207202 -0.036997322 -0.010736464 0.0160379 0.033615775
0.02450185 0.0051253503 -0.0061227265 -0.0038915859 0.037694193 0.0030808637 0.026587835 0.029339228
-0.03632146 -0.007027982 -0.03772558 -0.024640314 -0.020782871 0.028837372 -0.027026283 -0.029033002
0.0063117794 0.019748086 -0.03639969 -0.034588203 0.018391166 0.008540507 0.006938337 0.04337803
-0.004475902 0.0042130654 0.030386642 -0.008678669 -0.029101409 -0.041108802 0.016014665 -0.0027848193
0.00066376233 0.0148589155 -0.0006910475 -0.04159461 -0.035553835 0.016002327 0.05004657 0.008504622
-0.017452884 0.008017536 0.003697439 -0.008444422 -0.038429134 -0.03222808 0.0039754133 -0.037594352
0.019663509 0.0055960193 -0.0032361038 0.011785283 -0.0112015335 -0.03654822 0.0031788494 -0.009743436
0.0026783284 -0.025383258 0.030640213 0.061628968 -0.015433301 -0.006857134 -0.023507753 -0.033481225
0.031251494 0.011398252 0.0056698914 0.0373039 -0.04080051 -0.0024177649 0.010442764 -0.006814949
0.03696379 0.006196523 0.010100914 -0.02607005 -0.02342898 -0.014841185 -0.02438225 -0.041185122
-0.010626159 0.026943643 0.06357914 0.043534484 0.0067572463 -0.024118315 0.004945964 -0.012344885
0.035316173 -0.00018508459 -0.019604774 0.040730584 -0.00083860394 -0.031250365 0.008783282 -0.024113402
0.016246505 0.017079165 0.0053396425 -0.004629007 0.03168922 -0.024578076 -0.028895048 -0.021984609
-0.020502107 -0.037287384 -0.0038262 -0.0067735277 0.0070063095 -0.031044632 -0.019801537 0.030709606
0.024037734 0.05344597 0.08466571 -0.015196463 -0.027412005 0.020929992 0.0029351811 -0.024948487
0.043592967 0.041934434 -0.031375956 -0.03721059 -0.022654168 -0.055152647 -0.025091138 0.014125947
-0.05662802 0.033907324 0.05578614 -0.053341586 -0.027285099 0.012421568 -0.037135404 -0.041459534
-0.042557918 -0.025378644 -0.026703242 -0.0059785685 -0.03331032 -0.05981933 -0.0055182804 -0.036573377
-0.053471457 0.018715251 -0.019804237 -0.029639853 -0.0334996 -0.039136015 -0.038440317 -0.014088059
-0.00025682143 0.03816253 0.03432382 0.017394746 0.0073116315 -0.022513537 -0.050632514 -0.021235019
-0.007498274 -0.013676813 0.023635117 0.021295859 0.027043559 0.03235025 0.03520086 -0.019876882
-0.028489709 0.025136668 -0.01716606 0.03094497 0.028442677 0.003783625 -0.008241198 -0.01694375
0.03393289 -0.017973028 -0.040046062 -0.03887337 -0.010594114 -0.03442226 -0.0045151417 0.03597879
-0.008306673 -0.015112173 0.004441019 -0.0062227394 -0.00368682 -0.050412245 0.0008677686 0.036013365
-0.027370175 -0.043066137 -0.04973545 0.0064773853 0.009056579 0.016979279 -0.037665512 -0.005858513
-0.03596105 -0.017253445 0.04854804 -0.037150074 0.02294663 -0.040111326 -0.038031917 0.019568495
0.0015373911 0.03527329 -0.011858266 -0.02939339 0.048757568 0.016092671 -0.042786244 -0.00036579804
0.026271574 0.027159587 0.049648035 -0.0072074602 0.03683419 -0.04277713 -0.019781072 0.019623382
0.039633367 0.01957116 0.010305544 -0.019247169 -0.0038549 0.015980221 -0.009437664 0.012224422

fc0.bias f4 [100]
00000000: 430f 04bc 501d b13b 4a81 dcbc ffb6 e939
00000010: 0e4b 8f3d bf0b ebbc b2b8 603d 97fd 3f3d
00000020: f922 323c aa95 e23c e6fd 71bc f895 5e3d
00000030: a49b 113d 505d 113b d02d 2b3d dbad 0fbd
00000040: a10b 01bd 8022 d63c dcdb 2cbc 99f7 1dbc
00000050: 1f22 9a3d 77f9 c4bc 25ec 1dbd 0ca2 fabc
00000060: bddc 92bc 2e2b 30bd c02e a03d 7724 a53c
00000070: 56a3 c13c bdd8 25bd 9aab f73c 52b6 38bb
00000080: ed08 03bd 7058 3a3d 2671 36bd 7313 1c3c
00000090: 196d 143d 68a3 ba3c 00ab babc fcf8 273d
000000a0: 6204 4f3a 0d79 12bd 6e88 5bbc 20b8 75bc
000000b0: 26bf ef3b fe76 533d 22b8 883d 126c 40bc
000000c0: d2cd acba 860e e5bb d374 89bc f353 603c
000000d0: 0f60 ff3c ba05 113d 0797 0b3c 2f75 9e3c
000000e0: f6f9 edbc c61d 813d 2a61 683d 1ad9 b23c
000000f0: 9d55 f5bc a4fb 6a3d 3922 993b af2a 27bd
00000100: 3748 20bd ec01 6dbc 173a 22bd 04e6 57bc
00000110: ea60 9f3d 6e1d 013d 886d 8f3c 1c45 c63b
00000120: add9 f4bc 8209 1ebd 51f4 723d 7134 ddbc
00000130: 8db5 aebc 23c9 19bc 12ad e9bc e4ad 4dbb
00000140: 2618 dbba d97b 52bd 6d9d 073e dd01 eebc
00000150: 7895 c03c 308b af3b 657b fd3b 3464 913c
00000160: f641 68bb 1a46 30bd e4fa 3c3d 70a2 173d
00000170: f2cb 573d ede0 1ebd 597d c13c 25c2 5d3d
00000180: 0200 463c bf25 c43c c43b 803c 1b9f 27bd
-0.008060279 0.0054051057 -0.026917119 0.00044577566 0.069967374 -0.028692124 0.05486364 0.0468727
0.010872596 0.027659256 -0.014770007 0.05434224 0.03554882 0.0022180863 0.041791737 -0.03507791
-0.03150523 0.026139498 -0.010550465 -0.009641551 0.07526039 -0.024044735 -0.038555283 -0.030594848
-0.017927522 -0.04300993 0.07821417 0.02015899 0.023637455 -0.0404899 0.030233193 -0.0028184843
-0.031990934 0.045494497 -0.0445415 0.009526121 0.036236856 0.022782996 -0.022786617 0.041008934
0.00078970764 -0.035759974 -0.013399227 -0.014997512 0.007316488 0.05162715 0.066757455 -0.011744516
-0.0013183898 -0.0069902567 -0.016779339 0.01369189 0.031173734 0.035405852 0.008519894 0.019342987
-0.029049855 0.06304507 0.056733288 0.021832038 -0.02994805 0.05736889 0.004673269 -0.04081219
-0.03913137 -0.01446579 -0.03960618 -0.013177399 0.07782157 0.031522207 0.017508283 0.006050719
-0.029888952 -0.038583286 0.05931503 -0.027002545 -0.021326805 -0.009386334 -0.02852491 -0.0031384164
-0.0016715571 -0.05138764 0.13243647 -0.029053623 0.023508772 0.0053571686 0.007735657 0.017747976
-0.0035439706 -0.043035604 0.046137705 0.037020147 0.05268473 -0.038788725 0.02361934 0.05414023
0.012084963 0.02394378 0.015653498 -0.04092322

fc1.weight f4 [150, 100]
00000000: b302 b93d 955f a8be 72ce 0bbd 1611 ad3d
00000010: a616 423e b66b 633d a4b8 01bd 9471 823d
00000020: dc9c 82bd 993f 96bd 6d8c b1bd adca 15be
00000030: 8ce7 7ebd 5642 8ebd 260c 6a3d 24cf e0bd
00000040: 36ab 1d3e 7292 d03c 4601 173d cf46 e6bd
00000050: 9064 94be 1fe3 623d 5752 56bd 3aba 3fbd
00000060: f094 5d3d 2dba c73d fecd 3c3c ff2a b93c
00000070: 1f3b d43c 967c 453c db4f a73d 8d17 e2bc
00000080: a1d9 0ebd 9fe3 8cbd 8a7c edbc ef4f a93d
00000090: 72b2 c03d e30b 3bbd cb73 82bd c21e 333c
000000a0: a2c5 ba3d 2e7f 1cbe 6270 eb3c beb9 4dbd
000000b0: 435e 143e 2dd0 59bd 0635 2bba 47c3 07be
000000c0: a02d 9a3d 46aa 7bbd 6a63 c23c bc8b d93b
000000d0: 6649 2f3d 58a1 13be 0389 f0bc db68 d9bd
000000e0: c08c 84bd 4504 aabd 5f27 89bd 76e5 f53d
000000f0: d664 f0bd 0698 2bbc a26e 44bd ee3c 653d
00000100: fadb 20be e83b 2abd 98c8 903d 0b26 dcbb
00000110: b5ed bd3c a0dc 523d ddd9 e2bc ecb7 c33d
00000120: f2d9 5ebd c439 633d 128e 673d c036 b8bd
00000130: 30bc fcbd f1e2 9abd c5a9 c5bc dc6d a33d
00000140: ebe7 4d3d 3f81 c23d e4c6 bc3d 1749 733d
00000150: 05f9 f7bd 6a75 c7bd f0e5 8e3d bb53 f33d
00000160: 80fa 063e 1cd9 8f3d 8683 be3d 6335 f9bc
00000170: 8e60 5d3a fea2 f3bd 3ac3 cabc 4082 2cbe
00000180: 4f88 ed3b 80f3 0a3e 4021 d0bc 0b6b ad3d
00000190: 9060 c33c d6c1 bfbc 1aac eabb 7e63 173e
000001a0: 7db2 b0bb a585 25bd ed91 f23c 6987 3b3e
000001b0: 5887 033e b2e6 1dbd b0d5 2cbd 9df5 eabc
000001c0: b3f3 96bc ae1f d03d 0f51 683c 78ba ff3c
000001d0: db7d ba3d e992 e8bd e3d3 473d aede b4bd
000001e0: d6ab 85be 1d84 333e b8e3 493b e472 78bd
000001f0: 9f10 e23c 2932 adbd 5646 e1bd 4826 8c3d
00000200: b12e 823c 4fd3 8ebc c238 263e 5aa2 06bd
00000210: a7a2 2e3e f06a 003d 4198 0f3d a1e7 13be
00000220: e80b dcbd 0865 873d eab0 a3bd cccd 1abd
00000230: 0bc1 c73d 05e7 9bbe b374 a4bb 6c05 673d
00000240: 54f7 b13d 27b2 a33d 2ceb f8bc c1df a83c
00000250: 2a12 25bd 1f03 a73d 46db ad3c a183 0b3d
00000260: b3e6 b5bd adfd d13d 2fcb f7bc 9434 03be
00000270: 9140 86bd 88e9 d4bd d32a 38be be10 75bc
00000280: 9f13 a5bc 7554 aebd ca51 38be 9193 20be
00000290: 8e68 febd ad6d eb3c 37f7 f93c 35f9 45bd
000002a0: f722 c8bd 472e c9bc 9f7d 173d 7092 a43d
000002b0: 8abf c6bd 741d ad3b e992 1a3e e297 8ebd
000002c0: 4569 b73b 6c6e 873d e8c7 923d 9ed8 bb3d
000002d0: 08cc c0bd cbf3 123e 28bf 68be 0369 2fbb
000002e0: d704 e63d c802 9cbc 8308 e8bc d011 1fbe
000002f0: 4d48 a5bb 1632 353d 4e4f 81bc 7384 52be
00000300: 1969 16be 8993 023d fd2e 62bd 80a2 28be
00000310: e9af 0a3e 821b 583e 6997 443d ec31 ee3d
00000320: d25f 9b3d 907a 163e 8f92 b6bc 3c27 3dbd
00000330: 84fd 43bd a6dc 1bbd 5d7b a13d a475 703e
00000340: 88fa a3bd 6180 053d 30c6 2bbd 8cdf 803d
00000350: 8a55 f2bc a2c8 993d 2ac0 42bc 083c 95bc
00000360: b6f0 1c3d 385d 6c3d 498d 1a3e 475f 43bd
00000370: d06e 12be cf83 0bbd 70f9 d6ba a710 93bd
00000380: b352 9a3c e4e3 7a3d 61b3 41bd 03e5 753d
00000390: 6905 60bd e218 9e3d f44d 19be 31b0 c0bd
000003a0: f7b8 d5be be0c bfbd bc0f 6d3e 7f2f 44be
000003b0: cc0b 5cbe dbe1 893d bbd9 2a3d e625 f73c
000003c0: 25cf 49bd 86cf 993d e5e7 643d cfb8 9abd
000003d0: 546f 0b3d 502f a5bd e3c5 d03d 04f7 cd3b
000003e0: 9704 f03d 2e70 433e b096 8cb8 a4d6 89bd
000003f0: fc69 ddbb 7cd9 ff3d 1071 8a3d 7d4f 7abd
0.09033718 -0.32885423 -0.03413243 0.084505245 0.18953952 0.055522643 -0.031670228 0.063693196
-0.06377575 -0.07336349 -0.08669362 -0.14628096 -0.06223254 -0.06946246 0.057140492 -0.10977009
0.15397343 0.025460456 0.03686645 -0.112439744 -0.28982973 0.05539238 -0.05232462 -0.04680846
0.054097116 0.09752307 0.011523722 0.02260351 0.025907097 0.012053629 0.08169528 -0.02759912
-0.034875516 -0.06879353 -0.028990049 0.08267199 0.09409036 -0.045665633 -0.06369742 0.010932626
0.09119727 -0.1528289 0.028740112 -0.050225966 0.14489083 -0.053177048 -0.00065310334 -0.13258086
0.075282335 -0.061441682 0.023729045 0.006638972 0.042794608 -0.14417017 -0.029362207 -0.10615703
-0.064721584 -0.083015956 -0.066969626 0.12006657 -0.11737983 -0.010473257 -0.04795707 0.05596631
-0.15708914 -0.041561037 0.0706951 -0.0067184023 0.023184637 0.051479936 -0.027691776 0.09556565
-0.054407068 0.05547501 0.056531973 -0.08994818 -0.123405814 -0.07562817 -0.024128804 0.079799384
0.050270002 0.09497308 0.09217623 0.059395876 -0.121080436 -0.09739192 0.06977451 0.11881205
0.13181496 0.07023832 0.0930243 -0.030420965 0.0008444869 -0.11896323 -0.024751294 -0.16846561
0.0072489153 0.1356945 -0.02540648 0.084676825 0.023849756 -0.023407858 -0.0071616294 0.14784047
-0.005392371 -0.040410656 0.029610598 0.18313374 0.12844598 -0.038550086 -0.042195976 -0.02868157
-0.018426752 0.101622924 0.014179482 0.031216845 0.09106036 -0.11356146 0.048786055 -0.08831535
-0.26107663 0.17530866 0.0030805897 -0.060656443 0.027595816 -0.08456833 -0.10999744 0.06843239
0.015891405 -0.017434744 0.16232589 -0.032869674 0.17054234 0.031351984 0.03505731 -0.14443828
-0.107444584 0.06611067 -0.07992728 -0.03779392 0.09753617 -0.3044969 -0.0050187944 0.056401655
0.08689752 0.07992964 -0.030385576 0.020614507 -0.040300526 0.08154892 0.021222722 0.034061078
-0.08881893 0.10253463 -0.030248253 -0.12813026 -0.06555284 -0.10396105 -0.17985086 -0.014957605
-0.020150958 -0.08512203 -0.1799995 -0.15681292 -0.12422286 0.02873882 0.030513389 -0.048333365
-0.09772294 -0.0245582 0.036985036 0.08035743 -0.09704502 0.005283052 0.15095104 -0.06962563
0.005597266 0.06612858 0.07167035 0.09172176 -0.09413916 0.14350812 -0.2272917 -0.0026765473
0.11231392 -0.019044295 -0.028324371 -0.15534139 -0.0050440193 0.04423722 -0.015784886 -0.20558338
-0.14688529 0.03187898 -0.055220593 -0.16468239 0.13543667 0.21104243 0.04799596 0.116306156
0.07586636 0.14695191 -0.022286681 -0.046179995 -0.047849193 -0.038052224 0.07884858 0.23482376
-0.080067694 0.032593135 -0.041937053 0.06292638 -0.029581804 0.07508971 -0.011886636 -0.018217102
0.038315497 0.057706088 0.15092959 -0.047698285 -0.14300084 -0.03406125 -0.0016401242 -0.071809106
0.018838262 0.06125249 -0.04729021 0.060032856 -0.05469266 0.0771959 -0.14971143 -0.09408606
-0.4174268 -0.09328602 0.23150533 -0.19158743 -0.21488875 0.06732532 0.04171155 0.030169439
-0.049269814 0.07510285 0.055885214 -0.07554781 0.034041718 -0.08065665 0.10193994 0.00628555
0.117196254 0.19085762 -6.703788e-05 -0.067303926 -0.006757019 0.12492654 0.06759846 -0.061110962

fc1.bias f4 [150]
00000000: 97cb 093e ab84 65bd 2238 eabd 65c5 afbd
00000010: 5018 e5bb bc62 b23d 3a93 99bd 5722 78bd
00000020: 196b 1dbd 23fe 5abd dd90 2ebd ec4c 6bbd
00000030: d1e8 d53d 20d2 d23b 05cf 0dbd 9a26 0bbd
00000040: 4962 6fbd f8e8 9ebd bcd8 af3d 918d 7bbc
00000050: 9536 8dbd bcdf dabd 9196 2b3e a410 c7bd
00000060: 1bd0 9dbb bf20 e23d f9ec 78bd 0552 e3bd
00000070: 24fa b5bd 1982 33bc 9d22 78bd 3a1d 353d
00000080: 4b7a 863d 243d cabd f72a 8d3d 4bb4 3b3e
00000090: c808 d0bd 3d7a aabd 838f c5bd dd3d 3c3c
000000a0: feb5 ca3d 6fe0 443e dfad f4bc 9b1d d03d
000000b0: c24e 213d cabd 6e3b fffc fbbc e3ee 29bd
000000c0: 21bd 7fbd e00e acbd 84d3 57bd 9b1a 4e3d
000000d0: 1c3c 713d f516 8abd 56bd 04bd 2a97 5a3e
000000e0: 25c1 7bbc 4e29 683c 5cb4 82bb 6abb c63b
000000f0: ee50 6a3e ef6e 3abd 48d8 ccbd c9cf a83c
00000100: d286 953d e8d7 493c e796 e13c 61b7 293e
00000110: fcc6 ccbb 1c40 03bd 1700 dbbd fb2e eb3d
00000120: f7ab 83bd 4b20 3a3d 4d9b 5abd 9a2d 5f3d
00000130: 64ea 0a3c 8c84 8cbb 8bcd 023c 2410 363b
00000140: b223 343d 29df 283d 2b31 fdbc 6faa 0e3e
00000150: 5b91 183e 8864 5b3e c5d1 123e 7695 a13d
00000160: db95 063c fd2b 623c 5cad bebb 24d1 d6bd
00000170: b8ce 37bd cd6e 1d3e 19ae b9bd 7ec7 7dbc
00000180: 758a 8bbd 39fd afbc 4408 cdbd 1d3d adbd
00000190: a462 953d dbe3 df3d 38e7 113e dd25 97bd
000001a0: cb00 c7bd d73f 4abd 8358 47bd e730 a7bd
000001b0: 3e7f f7ba ef55 023e 79d8 253e 4e41 77bd
000001c0: bea0 723d 7344 8a3c e02a 3fbd f124 a33d
000001d0: 03e2 863d b6ce fe3c c1b4 eebb 63ce 533e
000001e0: c7f3 0e3c 71fa d0bd 7330 98bd 5440 8abc
000001f0: a7e2 70bd 74b7 a0bd a7d1 263d 65b1 55bd
00000200: 4e7c 383d 4289 79bd 3c18 323c 0ff0 003e
00000210: 6fd6 1e3e 13a7 263d 0f80 eabd 9ec3 e83b
00000220: 0f77 a5bc fdd5 b43b b76b 8ebd c643 9b3b
00000230: 23ac 90bd e721 d3bb cab8 9b3d 386c 253e
00000240: b53c debd c0a6 bdbd fcc8 dabc 469e b9bd
00000250: 8f64 47bd 5d8b 153e
0.1345657 -0.056034725 -0.11436488 -0.08582572 -0.0069914237 0.08710238 -0.07498784 -0.060579624
-0.038432214 -0.05346502 -0.04261862 -0.057446405 0.10444797 0.0064337403 -0.034621257 -0.03397236
-0.05844334 -0.07759279 0.08586261 -0.015353576 -0.06895176 -0.10687205 0.16756655 -0.09719971
-0.004816068 0.11041402 -0.06077287 -0.11099628 -0.08885601 -0.010956311 -0.060579885 0.044217326
0.06566294 -0.09874943 0.068929605 0.18330495 -0.10157925 -0.08324096 -0.09646513 0.011489359
0.098979935 0.1922624 -0.029868064 0.10161897 0.03938175 0.003642904 -0.030760286 -0.041487586
-0.062436227 -0.08401275 -0.05269195 0.05031834 0.058895215 -0.0674266 -0.032407127 0.21346727
-0.015365873 0.014170004 -0.0039887857 0.006064822 0.22882435 -0.04551595 -0.1000219 0.020606892
0.073011056 0.0123195425 0.027537776 0.1657386 -0.0062493067 -0.03204356 -0.106933765 0.1148357
-0.06429284 0.045440953 -0.053370763 0.05448685 0.008478735 -0.0042882618 0.007983576 0.0027780617
0.043979354 0.041228447 -0.030907234 0.13932203 0.14899199 0.21425068 0.14337833 0.078898355
0.008214439 0.013804433 -0.005819006 -0.10489109 -0.044874877 0.15374298 -0.090664096 -0.015489457
-0.06813518 -0.02148305 -0.10011342 -0.08458922 0.07294205 0.10932132 0.14248359 -0.07380269
-0.09716948 -0.04937729 -0.048668396 -0.08163624 -0.0018882526 0.12728094 0.16195859 -0.060365014
0.059235327 0.016878342 -0.04667175 0.079660304 0.06586077 0.031104427 -0.007284731 0.20684199
0.008725113 -0.10204018 -0.07431116 -0.016876377 -0.058809903 -0.07847491 0.040727284 -0.05217113
0.04504042 -0.060921915 0.010870036 0.12591575 0.15511487 0.04068668 -0.114502065 0.0071033975
-0.020198373 0.0055186735 -0.06954139 0.004738304 -0.070640825 -0.0064432505 0.07603605 0.16154563
-0.10851423 -0.09260321 -0.026707165 -0.090633914 -0.048679885 0.14603944

fc2.weight f4 [361, 150]
00000000: cf33 ac3c 9445 0abd d70c 9cbd 0732 373d
00000010: 72fc 493c 418a 023e d73d 61bd f97f 82bd
00000020: fbeb 5e3d 433c 9e3d 9551 c43c e304 90bd
00000030: c37a 173d 6fb8 f53c fd7e 233b 4387 b43c
00000040: a22f 8d3d 6f13 bcbc 3fd8 3d3d 5752 93bd
00000050: 3715 373c bc7d 20bc 3ee4 8fbc 7d79 a43c
00000060: f0df 923d 378d a2bd e870 76bc 4c67 ad3d
00000070: 998b 813d 2c34 053d a501 af3d 8664 1a3d
00000080: 7056 b4bd 81d3 9bbd 16fb 8cbd 073a 2abc
00000090: 5417 64bd 6ce5 a73c 2e3f 403c 093a 203c
000000a0: 04f8 f2bc 174d f2bd 2c32 52bd b756 33bc
000000b0: d2b1 c2bd b669 fcbb 31a3 4ebd 91b1 213e
000000c0: 1188 6bbd 0aa9 85bd 8d8c 3abd 3d78 afbd
000000d0: 541f f43c 0b30 c73c 4504 67bd 11c8 4abd
000000e0: b122 043e 3dda f23c 2960 2d3d 72c3 29bd
000000f0: e9a2 9ebd 81b0 98bd e3fb ff3b 9c4b 5e3d
00000100: 32fa 7a3d 7f0b ddba 65f2 aebd 1321 4c3d
00000110: e01a 1a3d 4a98 3e3b e1aa 0e3e 376d f23d
00000120: a92c a33d 7028 123d 2e96 213c 42f7 99bd
00000130: ddac 853d 5dca 19bd ed16 adbc 60c8 9a3d
00000140: 03da 90bd 1067 58bd 8040 23bc 9a34 d4bd
00000150: 7dae 8b3d ac53 93bd 8fac df3d 00b7 a9bd
00000160: 0980 bebd 8170 f23c bfc4 f1bc 4a57 463d
00000170: fe75 d33c f5b6 263d 5d8f 6dbd f722 b7bd
00000180: 32d7 033a 4563 613d 9981 3b3d 5d53 a6bd
00000190: fe2c 183e 101d 883b 4304 56bd 5ecf a43c
000001a0: 11a8 623d 0dd0 5dbd 50e6 37bd 7e58 9cbc
000001b0: e3bc 943d f7cf 4dbd 32ad a3bd ab4a a1bd
000001c0: f1b6 09bd 9de1 c8bd 5e54 623d 7637 64bd
000001d0: ab77 17bd 02ce 47bc cb0d b63d 2c2c 8b3c
000001e0: 457d 92bd 8412 a23d 4cec 9a3c 00dc ca3d
000001f0: 6e0c 293c 955b cb3b 3df0 1cbd 7a13 88bd
00000200: b164 7cbd 5e97 65bd add3 42bd 1c80 993d
00000210: b773 443c 6072 c63c 452f 75bd 1aaf 823d
00000220: 0f6e 11bd d1ec 103c b30b b3bd a858 6e3d
00000230: fc2a 88bd 8f72 de3c b68e 433d fb23 bc3c
00000240: 7b99 9ebd bf5f b0bd 5a21 9cba c7a8 e2bc
00000250: 5a41 2fbc 4b8f 1e3d f5fe f83c 60e3 74bd
00000260: a837 81bd d1b2 9e3c 70e5 e8bc de1b 68bd
00000270: 8d05 12bd 7511 633c e1ca 253d 5639 0f3c
00000280: daca 013c e198 ba3c 9c1e f8bc 8f38 973c
00000290: ed65 563d f4ce 3bbd e14e 2cbd 8214 93bc
000002a0: 9e01 cfbc f493 f4bc b084 2d3d fca2 593d
000002b0: 522e c63c 1421 e13c 3a7c af3c 280f 82bd
000002c0: 5aa3 023d c58a a2bd e66d 4dbd af6e 163d
000002d0: 2458 7cbd 58d7 8ebb ed9b 27bc 518f 97bc
000002e0: eef4 e03c f91a cabd 373e 603c d95e d1bc
000002f0: 7ef8 213d 2fd1 403d 8696 193b 07cc 05bd
00000300: 2043 9d3d 33f2 b8bd 89d8 70bd 5703 6bbd
00000310: a2dd f6bb 7ef8 23bd 0532 473d 6931 5dbd
00000320: 0188 febc 2ba3 d33c a9a6 afbd 0dc4 50bd
00000330: 8c70 703c 8b5b 9cbc a381 733b 2db5 26bd
00000340: d23d fb3c 9d92 75bd fbd5 49bd 5df1 9abd
00000350: d8d8 a2bd e10d edbc 72de a5bc 39c8 0e3c
00000360: 1a8b a7bd 0f02 0dbd 24b3 273d f774 0bbd
00000370: 3122 d43b 9313 b1bd 80ce 7d3c 42ac d6bb
00000380: a47e b4bd 3603 45bd 36be 353b df8d 99bd
00000390: d8d8 d8bc d732 75bd 1029 abbb 5016 8dbd
000003a0: 5ef4 54bc 0635 c2ba 6a4e 17bd 8573 81bd
000003b0: 739c 6b3d 1348 9e3d 7f23 693d e98c d7bc
000003c0: 9cdf ec3c b16e 033d aa17 a43d e567 b73c
000003d0: dc4c 883c 1a06 823d 91f6 ff3c 655b 563d
000003e0: ab8a 933d b367 9cbd 06ba 9dbd 77f1 38bd
000003f0: 97a6 29bd 9330 b43c 7440 0bbd 7d90 0a3d
0.021020798 -0.03375776 -0.076196365 0.044725444 0.012328254 0.12748052 -0.054990616 -0.06372065
0.054424267 0.07726338 0.023964683 -0.07032182 0.03698231 0.029995171 0.0024947517 0.022037154
0.06893851 -0.022958485 0.046348806 -0.071934395 0.011174492 -0.009795602 -0.017564889 0.020077461
0.07171619 -0.07937091 -0.015041567 0.08466968 0.06325454 0.032520458 0.085452355 0.037693523
-0.08805549 -0.076087005 -0.06883828 -0.010389811 -0.05568631 0.020495139 0.011733813 0.009779462
-0.029659279 -0.1183111 -0.05131738 -0.010945967 -0.09506573 -0.0077030314 -0.0504486 0.15790392
-0.05750281 -0.06526382 -0.045544196 -0.085678555 0.029800095 0.0243149 -0.056400556 -0.049507204
0.12903859 0.02964508 0.042328034 -0.041446157 -0.077459164 -0.074555404 0.0078120097 0.054271325
0.06127376 -0.0016864388 -0.08542327 0.04983623 0.037623286 0.002908247 0.13932373 0.11837237
0.079675026 0.035683095 0.009862466 -0.07517864 0.06527112 -0.037546504 -0.021129096 0.0755775
-0.070728324 -0.052832663 -0.0099641085 -0.103615955 0.068203904 -0.071936935 0.10921585 -0.082868576
-0.093017645 0.029594662 -0.029512761 0.04842309 0.025813099 0.040701825 -0.05799805 -0.08942216
0.000502932 0.05502631 0.04577789 -0.08121369 0.14860913 0.004153855 -0.052250158 0.020118412
0.055336062 -0.05415349 -0.044897377 -0.019085165 0.0726259 -0.05024716 -0.07992019 -0.0787557
-0.033621732 -0.09808657 0.05525624 -0.055716954 -0.03697936 -0.012195112 0.088893496 0.016988836
-0.071527995 0.07913688 0.018911503 0.09905243 0.010317905 0.006205986 -0.038315047 -0.0664434
-0.061619464 -0.056052558 -0.04756515 0.07495138 0.011990479 0.02422446 -0.059859533 0.06381054
-0.03550535 0.008845524 -0.08742466 0.058190018 -0.066488236 0.027154235 0.04774352 0.022966376
-0.07744118 -0.08612012 -0.0011911795 -0.02766837 -0.010696733 0.038710874 0.03039501 -0.059787154
-0.06309444 0.019372376 -0.028429717 -0.0566672 -0.035649825 0.013859143 0.040476684 0.008741697
0.007921899 0.022777976 -0.030288033 0.018459586 0.052343298 -0.045851663 -0.042067412 -0.017954115
-0.025269326 -0.029855706 0.04236287 0.05313395 0.02419201 0.027481593 0.02142154 -0.06350547
0.031894065 -0.079366244 -0.050153635 0.03672665 -0.061607495 -0.004359167 -0.010230047 -0.018500956
0.027460542 -0.09868426 0.013686708 -0.025557922 0.03954362 0.047074493 0.0023435666 -0.03266528
0.07678819 -0.09030571 -0.058800254 -0.057376232 -0.007533745 -0.040031902 0.048631687 -0.0540022
-0.031070711 0.02583464 -0.0857671 -0.05096822 0.014675271 -0.01908662 0.0037156127 -0.040700126
0.030669127 -0.059954274 -0.049276333 -0.07565568 -0.07951516 -0.028937282 -0.020247672 0.008714729
-0.081808284 -0.03442579 0.040942326 -0.034047093 0.0064738025 -0.086463116 0.015491128 -0.0065512965
-0.08813217 -0.048098765 0.0027731783 -0.07497763 -0.026470587 -0.059862938 -0.005223401 -0.068890214
-0.012997715 -0.0014816828 -0.036940016 -0.06320862 0.05752225 0.07728591 0.056918617 -0.026312308
0.028915219 0.032087985 0.08012326 0.022388408 0.016638212 0.0634882 0.031245502 0.052333254
0.07204183 -0.076369666 -0.07701497 -0.045152154 -0.041418638 0.021995818 -0.033997014 0.0338292

fc2.bias f4 [361]
00000000: 0aae 99bd 106f c93b bf95 87bb 1353 1bbd
00000010: 30af c53c f82b 86bd 7ea3 33bd 11e0 5cbd
00000020: 7ccb bcbd c4d7 d63c e595 c53b 751d 2a3c
00000030: 9083 c4bd 7d4a 46bc 52d4 5fbd 71de 53bd
00000040: 3e5e 97bd 8512 213d a2e6 f3bb d762 973e
00000050: 3ba2 0bbd b950 b73d e21e cb3c 1b02 6abc
00000060: 22ef 1f3d 8691 b03d 66b2 543c 572f a43b
00000070: 303a efbc e02e ab3d befa 833d a2b4 bdbd
00000080: b55d aebb 8a93 213e f6a7 833d 913a 8cbc
00000090: ba23 a93c 86b1 8e3d 999e fb3c 57d9 50bc
000000a0: 7412 dfbd d0c0 373d f20c cebd 3973 4f3d
000000b0: bff7 843c 0d70 ffbc 1271 2b3e 0ad5 b8bd
000000c0: 68d9 773d 72d2 3b3d 365d ad3c 7583 1f3d
000000d0: 2cbf 06bd 410a 653d 6c9d 44bd 0987 c83d
000000e0: f794 253c 79dc 3f3e f7e7 7fbd 8037 4cbd
000000f0: b15b 6abb ed66 a1bc 3c5d c93c a6fc ba3d
00000100: 13d1 533d 4997 013d 8900 ddbc 53ad 183d
00000110: 7d34 a53d 055c 503d 1504 573c ffc1 fd3b
00000120: 367a 203d 154b 9b3b 700c b4bd 9c57 db3c
00000130: a12d 8c3d 77f8 cbbd 2360 e3bc 9e3f 10bd
00000140: d517 d1bd f591 97bd e137 7a3c 32a5 543c
00000150: 1827 52bd 6bf0 2b3d 6f50 2bbd fc34 f6bc
00000160: 3c56 97bd 51dc 443d 48b9 3cbd 2cd1 363d
00000170: 763f 8b3c 37b9 463d 3dd8 cdbd 4283 26bc
00000180: 7743 09bd fe04 c73c f8aa 2a3b f760 22bd
00000190: d648 e1bc bea4 1e3d 99fc 093d ca2d 97bd
000001a0: 2a73 143d b768 adbd 67f3 2a3d 49d2 d03c
000001b0: 70d3 97bd 8bdc 333c f3e3 e03c d0ea b6bd
000001c0: 63a8 993b 9e98 d5bc 5940 3e3e 0225 7abd
000001d0: 33a4 653d 73fb aabd 6dd9 103d 6060 40bc
000001e0: 2195 05bd 724a 6dbd 19aa c2bd f128 01bd
000001f0: 481d babd 1749 1f3d 3aa5 803d a509 cabc
00000200: 4dff 953d 8011 ddbc afb8 4f39 caf4 66bd
00000210: 44a2 5ebd 80e4 6a3e f27b 3abd e94e babd
00000220: 37e3 20bc 1952 37bd ae83 13bd fcee dcbc
00000230: c3a9 eeba 5981 33bd 86d7 8ebd fb7c a83a
00000240: 7fbb 73bb 1dd0 c8bd 5618 c3bc 0365 963c
00000250: 8109 a33c a45e a0bd 2d26 96bc 1251 833d
00000260: d473 acbc acc7 8abd 175f 253c 12f6 173c
00000270: 3bc6 cbbc 519e ef3c b59b 09bc b34c edbb
00000280: ae47 dcbd c70b fdbc 444f d9bd 9528 7ebd
00000290: 73f0 8dbd 19cb 563d bbd2 e73c 1959 abbc
000002a0: c399 57bd d0ac 6abd 52ec 8bbc 3d89 393e
000002b0: 3f3c a3bd 0827 58bd 83d0 ed3c 77f7 cfbc
000002c0: b862 b53c 327d 00bc a5b4 14bd 2465 573d
000002d0: deae b3bd 7409 073d f740 9ebd c2f0 55bd
000002e0: 0ce8 a7bd 2173 0f3d 97f8 28bc 616c 3cbd
000002f0: 8d3d abbd 6647 cd3c 3feb a23e e5e5 8cbd
00000300: fc91 58bc cbe7 203d 47a6 263c c4d4 a03c
00000310: ca41 59bc 4a06 1bbb 11f6 0b3d bb79 4e3d
00000320: 3d8e d8bd fe14 90bd 7b6d 95bd 41e9 9f3d
00000330: 0501 b83d 5916 ad3d 5d75 d13c 7360 763c
00000340: 43e1 9bbd 90ee ac3d 8de6 cdbb 721a 7f3b
00000350: f1d0 75bd 1d0d 283d 502d 66bd c672 4dbc
00000360: a24e c1bd 908f 823d 266e 71bb 55a2 a3bc
00000370: 263d 833c 76f5 acba c452 8a3d 3a58 433d
00000380: d48d 9bbd 91c4 89ba 3113 5e3d c3c3 73bd
00000390: b54f be3c 267f 9dbd 994b fdbc a868 533c
000003a0: 98c4 9c3c ec54 69bd 353a 9abd 3edf 983c
000003b0: a6e0 77bd 5afb aebd 9340 79bc 6007 85bd
000003c0: 8b76 c1bd 8f70 c9bd 2da9 1fbd bb2a 73bc
000003d0: 62cd 743c bc63 bf3c e19e 783d 6f25 813e
000003e0: 13c5 2cbd 6f34 a6bd 1d45 2b3d c9ec 3d3d
000003f0: 2f4f bc3c e6e9 4ebd cc4e 08bd 0894 623e
-0.075038984 0.006147273 -0.004137724 -0.037921023 0.024131387 -0.06551355 -0.04385709 -0.053924624
-0.09218499 0.026225932 0.0060298317 0.010383 -0.09595406 -0.01210272 -0.054645844 -0.05172581
-0.07391022 0.039324302 -0.007443265 0.29567596 -0.034090262 0.089509435 0.024795 -0.014282729
0.039046414 0.086215064 0.012981987 0.005010526 -0.02920255 0.0835855 0.0644431 -0.092629686
-0.0053212293 0.15778938 0.064285204 -0.01711777 0.020646919 0.06967454 0.030715274 -0.01274713
-0.108921915 0.044861615 -0.10061063 0.050646994 0.016231416 -0.03118136 0.16742352 -0.09025009
0.06051007 0.045854993 0.02116261 0.038943727 -0.03289716 0.055917982 -0.04800169 0.09791381
0.010106317 0.18736447 -0.06247708 -0.049857616 -0.0035760219 -0.0197024 0.02458059 0.0913022
0.05171306 0.031638417 -0.026977794 0.03727467 0.08066652 0.050869007 0.013123532 0.0077440734
0.03917905 0.004739175 -0.08791435 0.026775174 0.068446405 -0.099595 -0.027755802 -0.03521692
-0.10209624 -0.07400886 0.015272112 0.012978839 -0.051306814 0.041977327 -0.041824754 -0.030054562
-0.07389495 0.048061673 -0.046075135 0.044633076 0.016998034 0.04851648 -0.1005101 -0.01016313
-0.033511605 0.024294373 0.0026041847 -0.039643254 -0.027500551 0.03873133 0.03368816 -0.073817804
0.03624264 -0.084672384 0.041736033 0.025490897 -0.074133754 0.0109778745 0.027452445 -0.08931506
0.0046892627 -0.02607375 0.18579234 -0.06107045 0.056064796 -0.083487414 0.035363603 -0.011741728
-0.032612924 -0.057932325 -0.095051 -0.031533185 -0.09087616 0.038888063 0.062815145 -0.024662802
0.073240854 -0.026985884 0.00019809858 -0.056385793 -0.054353967 0.22938728 -0.04552836 -0.09097082
-0.009819797 -0.04475603 -0.03601425 -0.026969425 -0.0018208552 -0.043824527 -0.069747016 0.001285463
-0.0037190614 -0.098053195 -0.023815315 0.018358713 0.019901993 -0.07830551 -0.01832875 0.06411947
-0.021051325 -0.06776366 0.010093472 0.009274976 -0.024874797 0.029250296 -0.00839894 -0.0072418093
-0.10755859 -0.030889405 -0.10610822 -0.06205042 -0.06930628 0.052439783 0.028298726 -0.020916509
-0.052636873 -0.057293713 -0.01708046 0.18118758 -0.079704754 -0.052771598 0.02903009 -0.025386555
0.0221418 -0.007842349 -0.03630509 0.05258669 -0.08773588 0.032968 -0.07727235 -0.052231558
-0.08198556 0.035021905 -0.010313175 -0.046001796 -0.08361349 0.02505846 0.31820104 -0.068797864
-0.013218399 0.039283555 0.01017148 0.019632705 -0.013260314 -0.0023654872 0.034170214 0.05040906
-0.10574005 -0.07035254 -0.07296272 0.078081615 0.089845695 0.08451528 0.025568658 0.015037644
-0.07611325 0.0844394 -0.0062835873 0.0038925675 -0.060013715 0.04102813 -0.056195557 -0.012539571
-0.09438826 0.063750386 -0.0036839335 -0.019974867 0.016020369 -0.0013195712 0.067540675 0.04769156
-0.07595411 -0.0010510852 0.05421752 -0.059512865 0.023231367 -0.07690267 -0.030919837 0.01290337
0.019136712 -0.056965753 -0.07530633 0.018661138 -0.060516976 -0.08544035 -0.01521315 -0.06495547
-0.094464384 -0.09835922 -0.038979698 -0.014841731 0.014941545 0.023362987 0.060698394 0.25223872
-0.042180132 -0.0811547 0.04181396 0.046368394 0.022986976 -0.05051603 -0.03327827 0.22126782
