pesosNombre.pth (torch, 980847 bytes, 10 tensors)

conv.weight f4 [5, 3, 2, 2]
00000000: 7b30 4b3e 28e1 89bd ce3c 88be e7e1 2e3c
00000010: 8b99 353d 26eb 07be ea88 a3bd eece 1e3e
00000020: 0d78 81be 63f0 0e3e 67e3 8a3e c31c 41be
00000030: f712 d13f 1ab5 393f 851a cdbe f214 cebe
00000040: d248 bd3f f64f 4e3f 5258 a53d aefb 12be
00000050: 16ec a43f 5a85 3f3f a47f 333f f6b5 f53e
00000060: a671 ed3f f0ee 0fc0 92e7 e43e 3348 4040
00000070: e3e9 d13f 61cf f4bf 721a 6abe 952e 0740
00000080: 39be 893f a0fd 0cc0 5caa 5fbe 411a 4b3f
00000090: dcbf c63d 0bf6 83bd 199d 76be 8f4e b6bd
000000a0: 50da 34be 3172 0fbe f2e3 fc3c 1914 7cbe
000000b0: fa2d b6bd 15fa 80bd 3998 00be a8e0 db3d
000000c0: 1c46 333f 1b26 80bf 0bb5 9a3e 4251 8a3f
000000d0: 3a94 383d 8e85 80bf 0897 85be 6a65 783f
000000e0: 3988 9b3d c66d 79bf d0c2 aebd b1e0 043f
0.19842713 -0.06732398 -0.2660889 0.0106739765 0.044335883 -0.13273296 -0.07985099 0.15508625
-0.25286904 0.13958888 0.2712662 -0.18858628 1.6333913 0.72541964 -0.40059295 -0.40250355
1.4787848 0.8059076 0.080734864 -0.1435382 1.2884548 0.74812853 0.7011664 0.47990388
1.8550308 -2.2489586 0.44707924 3.0044067 1.6399502 -1.9125787 -0.2286165 2.1122181
1.0761176 -2.20298 -0.2184233 0.79336935 0.09704563 -0.06443413 -0.24083365 -0.089017026
-0.17661405 -0.14008404 0.030870412 -0.24617042 -0.08895488 -0.06297699 -0.12558068 0.10736209
0.70028853 -1.0011629 0.3021625 1.0806048 0.045063235 -1.0040758 -0.2609179 0.97029746
0.07594342 -0.97433126 -0.08533251 0.5190535

conv.bias f4 [5]
00000000: c2c4 31be f412 a0bd 746a fd3f e0f7 32be
00000010: 8039 a33f
-0.17360213 -0.07816115 1.9798112 -0.1747737 1.2751923

conv2.weight f4 [3, 5, 2, 2]
00000000: c686 c3bd 8c86 233e 7456 9a3d e8b6 5fbe
00000010: 035a 843e bd98 f9bb fccf 3abe e3fb fe3d
00000020: 1c4a 30be 30f5 473d 3108 77bd ed6f 073c
00000030: f5bf 9cbd cd86 153e 3c1c 1a3e a1fc f93d
00000040: c616 453d 643b f4ba b280 e33d 02b4 023c
00000050: 79ba dc3d f277 96bd c22d 66bc 5415 38bd
00000060: 711d d03f 393f be3e 23bc 89bf c4e7 27bf
00000070: cf36 3ebf bf2f 5540 9b35 983f c351 c4bf
00000080: 9d8b 453e 4517 6dbc 627c f53d 56a1 173e
00000090: e3da 69bf 6c32 aa3f 16c6 0d3f 45c0 10bf
000000a0: a1e0 383e 7e53 583e d19d 33be 0064 2ebe
000000b0: c8b5 29bf 2a67 193f f827 2fbd 0f8b ffbf
000000c0: 8db8 94bf 61a1 15bf 0229 9340 5bea 603f
000000d0: a6d6 4f3e 1d38 7ebd 81ca 09be 0d5d 5c3e
000000e0: 67f3 d7bd 870d 9d3d 9ec3 ee3f 8cff 443f
-0.0954719 0.15969294 0.07536021 -0.21847117 0.25849923 -0.007617085 -0.18243402 0.12450387
-0.1721577 0.048817813 -0.060310546 0.008266431 -0.076538004 0.14602204 0.15049833 0.12206388
0.04811742 -0.0018633422 0.11108531 0.0079774875 0.10777754 -0.073470965 -0.014048995 -0.044942215
1.6258985 0.3715761 -1.076054 -0.6558802 -0.7430238 3.3310392 1.1891359 -1.5337452
0.1929154 -0.01447088 0.11986615 0.14807639 -0.9134962 1.3296638 0.5538038 -0.5654338
0.18054439 0.211256 -0.17540671 -0.17030334 -0.66293 0.5992304 -0.042762727 -1.9964312
-1.161882 -0.5844937 4.598756 0.878576 0.20296726 -0.062065233 -0.13456155 0.21519871
-0.10544472 0.07668596 1.8653448 0.76952434

conv2.bias f4 [3]
00000000: 1ac4 6e3b 6a78 4e3f e13c be3f
0.0036432804 0.8065249 1.4862329

fc0.weight f4 [150, 72]
00000000: bd7b 89bd 9c70 6ebd 1f36 1cbd 8583 963d
00000010: 8e67 edba 0517 b33d 2cff 563d 3eea 62bd
00000020: 0018 173d 302b 493d 96ef 8bbc e958 853d
00000030: 8182 81bd ba2b efbd 69ca d4bd d312 e1bc
00000040: f5cf cbbd 5cc9 e4bd 2644 9f3d 0215 e23d
00000050: 89d1 943d 22c1 be3d fc2b fe3b d627 0c3c
00000060: 06f5 e9bd e8c5 343b bd22 e43c f768 debb
00000070: aa89 653b 59d7 38bd a89d c03d 1e91 bebd
00000080: f818 bcbd 48a3 153d 9a29 b63d 0ed4 08bd
00000090: daf7 82bd c7df 8cbd c453 f03d 2d9a 123e
000000a0: 20c4 a7bd 872b 42bd e7c3 e0bd 9b28 8d3c
000000b0: e5d0 c3bd 53be bd3c 7611 47bd d717 b7bd
000000c0: 89d5 963d 06b2 3a3c 6dc7 223d 68f9 d53c
000000d0: b699 f93d 1533 03be cb59 b13d 8eda 7a3d
000000e0: fea7 8abc a7ef d93d 0dfd 4a3c ffd4 c8bd
000000f0: 6b03 ecbc 0762 f6bd 2543 e4bd 13ad ea3c
00000100: d632 05be 9c4b d93d 3fd3 d63c 12a3 9abd
00000110: 850b f6bd 1ca9 f7bc 236c 273d b48b 88bd
00000120: c9db 7e3d 3292 9a3d dc82 babd ce7e 133c
00000130: 7fb2 053c 67c4 eabd 2ea8 d9bc 9baa 50bd
00000140: bd7e f0bd 6a53 88bd 69bd 073d 607e bdbd
00000150: b54c 823d d252 f83c 1149 51bd 8588 29bd
00000160: 3c6f 8a3d e0eb 93bd fe99 983d 619c 69bc
00000170: 0d52 db3d 6486 5abd 2e10 d53d 9d0e 95bb
00000180: 8b5b 01bd c610 94bd bc82 12be 5f79 2c3d
00000190: d695 5f3d df4c c13d 7395 92bd 67de 42bd
000001a0: c8d0 0a3e a6b4 ce3d 5d5a 5fbd ec8a 99bd
000001b0: cc98 02bd 76c4 323e 6ad2 d9bc 95be c13d
000001c0: 1f18 d63d 81fe ff3d a508 81bc 7f29 dd3d
000001d0: 83cd 82bd a802 db3d a0e2 803d c966 bbbd
000001e0: a156 dd3d 278f febd 2159 3fbd 6ccd 7a3e
000001f0: 81d9 f3bc cc3b 8bbb 3a52 19bd 1db4 dbbd
00000200: f920 163e 3e9f 0c3d 56bd 0f3d 75f5 7cbc
00000210: 51d9 c6bd 174a 80bd ed63 2bbe 8e79 09bd
00000220: c2ec 883c fcdd 823d c72d 29bd bfbf a6bd
00000230: 6cdc 2ebd 725a a33b 87ef fcbd a5c8 90bb
00000240: a766 b33b 2ff9 b2bd b6ba 52bd c34e 34bd
00000250: 46ce 103d 171d 323d a5c8 a83d 2b27 88bd
00000260: 0881 a9bc d450 b33d 5017 1dbd 708d 42bd
00000270: 290b 52bd 37c0 393d 11a7 363c 31aa fc3c
00000280: af3b de3c a2ba 30bd 2c6e 103d 076f 05bd
00000290: 7e66 9e3d 2160 3abd e6d7 97ba a64f 31bd
000002a0: 7349 17be bd8a 9d3d b4b9 d3bd 3025 263d
000002b0: 6b59 f9bd ad76 d6bd b56c cd3d 8cd8 13be
000002c0: 9870 5bbd 87d4 85bc d8cb 47bd dcc1 05bd
000002d0: bb3c 173d 9ad6 dbbc d7c6 013d b4a8 dbbd
000002e0: 8740 9cbd 39b8 cb3c 2c56 99bb 522f 2b3e
000002f0: e025 5e3e f8d7 903d 51c4 1bbe 75cf d23d
00000300: b76d 923d 2478 de3d aa0c 863d ed6b 08be
00000310: 1202 e5bd 1e73 ad3c d596 673b a4e6 98bd
00000320: 1733 643e fda4 873e 03c1 b1bd 4715 643d
00000330: 7afc 70be 3484 2a3d fe0e 28bc 1b55 013e
00000340: c278 453e c9f9 6f3c a0dc f2bd 2acd 79be
00000350: ec0f a9bd f5e2 66be a73a 85bc 8cae f43d
00000360: 71ea adbd 427f c63d a616 933d 1d1c ba3d
00000370: fc71 b0bd d6a0 a93d 6845 4dbd 7471 713d
00000380: 4594 a33d 2061 abbd 1665 80bd 9347 17bd
00000390: 9be8 eabd bcd7 58bc c73f 4a3d 6b3d b4bd
000003a0: 659a a9bd c9d0 d23a b82b 8abd d319 e83c
000003b0: 96ed dfbd 518f a43c a56e a13d 3022 0abd
000003c0: 571c 4d3d bcdc b2bd 1e09 a43d ab82 c83d
000003d0: b715 c9bc a7a9 dcbd 567c 51bd 7c88 0ebd
000003e0: f911 15bb 844b 55bc 52d9 d5bd db83 6a3d
000003f0: 26d6 753d ce2c aa3d 24e8 84bd e2eb cbbd
-0.06713054 -0.05821286 -0.03813755 0.07349304 -0.0018112527 0.08744625 0.052489445 -0.055399172
0.036888123 0.049113452 -0.017082017 0.06511099 -0.0632372 -0.11678262 -0.10390169 -0.027474796
-0.09951774 -0.11171219 0.0777667 0.11039163 0.07266528 0.09314181 0.007756708 0.0085544195
-0.11423688 0.0027583782 0.027848596 -0.006787415 0.003502468 -0.045127247 0.094050705 -0.09305023
-0.0918445 0.03653267 0.088946536 -0.033405356 -0.0639493 -0.0687862 0.11734727 0.14316626
-0.08191705 -0.047404792 -0.109748654 0.017231276 -0.09561328 0.023162043 -0.048600636 -0.08940094
0.07364947 0.011394983 0.03974097 0.026119903 0.12187521 -0.12812455 0.08659705 0.061243586
-0.016925808 0.10641413 0.012389434 -0.09806251 -0.028810224 -0.12030416 -0.11145619 0.028646981
-0.13007674 0.106101245 0.026223777 -0.075506344 -0.12013916 -0.030232005 0.04087461 -0.06667271
0.062221322 0.07547416 -0.09106991 0.009002401 0.008160233 -0.11463242 -0.026569452 -0.050943952
-0.117429234 -0.06656535 0.03313962 -0.0925262 0.06362287 0.03031293 -0.051095072 -0.04138996
0.067594975 -0.07222724 0.07451247 -0.014258475 0.10709009 -0.05335082 0.10403477 -0.004548861
-0.031581443 -0.07229762 -0.14307684 0.042107936 0.054586254 0.0943849 -0.071574114 -0.04757538
0.13556206 0.1009305 -0.054529537 -0.074972 -0.031884 0.17457756 -0.026589591 0.09460179
0.104538195 0.12499715 -0.015751192 0.107989304 -0.063868545 0.10693866 0.06293225 -0.09150464
0.10807539 -0.12429648 -0.04671586 0.24492425 -0.0297668 -0.0042490717 -0.037431933 -0.10727713
0.14661016 0.034331553 0.035092674 -0.015439381 -0.097094186 -0.062641315 -0.16737337 -0.03356319
0.016714457 0.063899964 -0.041303422 -0.081420414 -0.04269068 0.004985147 -0.12350374 -0.00441845
0.0054748836 -0.08738934 -0.051447593 -0.044020426 0.035352968 0.043484773 0.08241395 -0.06648096
-0.02069141 0.08755651 -0.03835231 -0.047498167 -0.051280174 0.045349326 0.01114823 0.030842872
0.027128069 -0.043146737 0.035261318 -0.032576587 0.077343926 -0.045501832 -0.0011584728 -0.04328885
-0.14774112 0.07692478 -0.103381544 0.04056281 -0.12175258 -0.10471854 0.100305 -0.14438075
-0.053574175 -0.016336692 -0.048778385 -0.03265558 0.03692315 -0.026835728 0.03168377 -0.10725537
-0.07629495 0.024868118 -0.004679462 0.1671727 0.21694136 0.07072443 -0.15211608 0.102934755
0.07149833 0.10862759 0.06545384 -0.1332242 -0.111820355 0.021173056 0.0035337706 -0.07465866
0.22285114 0.26493064 -0.08679392 0.055684354 -0.23533812 0.041629985 -0.010257481 0.12630121
0.19284347 0.014646956 -0.11858487 -0.2439467 -0.0825499 -0.22547515 -0.01626332 0.11947355
-0.08491982 0.09692241 0.07182054 0.090873934 -0.08615491 0.0828263 -0.05011502 0.058946088
0.079872645 -0.083681345 -0.062692806 -0.036933493 -0.11470147 -0.013235029 0.04937723 -0.08800777
-0.082814015 0.0016083951 -0.0674662 0.028332626 -0.10933988 0.02008787 0.07882432 -0.03372401
0.050075855 -0.08733508 0.080095515 0.09790548 -0.024546487 -0.10774546 -0.051143967 -0.03479813
-0.0022746308 -0.013018493 -0.10441841 0.057254653 0.06001868 0.08309327 -0.0648959 -0.099571005

fc0.bias f4 [150]
00000000: dbcf e1bd 7632 c4bc 32b5 e73c 5074 f2bd
00000010: 38fc 813d 31a3 523d 4b39 49bd 34f6 913c
00000020: eead c83d 2acc 5bbc 0cdd b6bd 8168 873c
00000030: 2af4 c4bd cdf2 d9bd c904 d03d 9dbe 16bd
00000040: 22e3 e0bd dc1d 92bc 5e48 c6bd 25ae a13d
00000050: d28e 583b e23c bc3d 0f21 853d 511a efbd
00000060: bf63 6f3d 3101 15bd 347c 853d 097d 5b3d
00000070: 9e83 46bc 6a6b 063d 9a93 9e3c 8ed2 46bd
00000080: b8a7 38bd 625c 7fbd ed6b 1dbd ca40 943c
00000090: b4b6 423d b75b 933d bf1c a63c 9321 f03d
000000a0: e621 863c 1f24 e1bd dc0f d1bd f454 93bd
000000b0: 870f af3d 715e c4bd 0e98 933d 88f7 8d3d
000000c0: bf44 c33d a25b 8ebd fce4 7a3d e42b 80bb
000000d0: 7f31 5ebd 677d cd3d 80f4 c43d dad8 38bd
000000e0: e498 83bd 6e7e 4ebc 4eb4 52bd 08c7 3e3e
000000f0: 5d36 06be 95e8 d1bd 9248 463d 7ff8 893d
00000100: 5dec 4fbb e189 f8bd bfcc 373d 7c00 30bd
00000110: 5af0 093e da7f 10bd 49f6 eebc 2b23 c6bd
00000120: 5209 953c b92c 8a3d 2cd1 07bd 6f63 ad3d
00000130: 1e2b a5bd a7a7 c2bd 8466 c73d 3859 acbd
00000140: e291 1d3e 37cd 7ebd b3c0 6e3d f45e 433d
00000150: e115 64bd 29cb ef3d 6ab3 f13d 95b8 f2bd
00000160: 684c 6a3d b630 5cbd 5829 ef3c 3fcf 613c
00000170: 6bb6 cdbd d95d a1bc 19a8 cfbd 4eef 973d
00000180: 1f03 993d b97b 583d c389 043e b736 2f3e
00000190: d515 9f3c 006b 8c3d 069b 9bbd a181 3e3d
000001a0: f716 11bd 5d4f 1b3d 7bb5 20be 9b92 213d
000001b0: bd4f 83bd 5f6a e0bd 04c6 173e a731 32bd
000001c0: 5671 42bd b19c e83d f414 b73c 5a67 d83d
000001d0: 7704 d5bd 2c46 68bd 61c1 343c a7c9 f5bd
000001e0: e88c bebd 5432 fb3d 8094 b7bd eca7 35bb
000001f0: f517 d7bd 6d44 a43c 0737 63bc 7479 00be
00000200: 48b6 873c 3e2e eabd f0c0 e3bc 33e2 ebbd
00000210: 6781 643d ede6 b23d 33ed e43d 6ff1 aa3d
00000220: 894e 703d dede 423d 2bb3 e9bd 280f e33d
00000230: e5f6 093e fc73 d9bb f1a3 91bd 27ca 20bd
00000240: 8339 c3bd dd36 b7ba 8c8f dc3d 4940 6ebd
00000250: 4488 8abd 97a5 5f3d
-0.110259734 -0.023949843 0.028284643 -0.11838591 0.06346935 0.051425163 -0.049126904 0.017817594
0.097987995 -0.013415376 -0.0892888 0.016529324 -0.09616883 -0.10642014 0.10157163 -0.036802877
-0.10980822 -0.017836504 -0.09681772 0.078945436 0.0033044112 0.091913 0.06500446 -0.11674941
0.058444735 -0.03637809 0.065178305 0.05358604 -0.012116341 0.03281728 0.019357491 -0.048540644
-0.045081824 -0.062343962 -0.038433004 0.0180973 0.04753752 0.071952276 0.02027738 0.11725154
0.016373586 -0.10993218 -0.10208103 -0.07193938 0.085478835 -0.09588326 0.072067365 0.069319785
0.09534597 -0.06951071 0.061253533 -0.003911482 -0.054246422 0.10033684 0.09616947 -0.04512868
-0.06425646 -0.012603385 -0.051441483 0.18630612 -0.13106675 -0.102494396 0.048409052 0.0673685
-0.0031726577 -0.12135673 0.044872995 -0.042969212 0.13470593 -0.03527818 -0.029170172 -0.096746765
0.01819292 0.067468114 -0.033158466 0.08466231 -0.080648646 -0.095046334 0.0973635 -0.084154546
0.15387681 -0.062207427 0.05828924 0.047697976 -0.055684928 0.117086716 0.11801799 -0.118516125
0.057201773 -0.053757392 0.029194519 0.0137823215 -0.10044559 -0.01969807 -0.10139484 0.074186906
0.074712984 0.052852366 0.12943177 0.17110716 0.01941959 0.06856346 -0.07597928 0.046510343
-0.03542229 0.037917484 -0.1569423 0.039446454 -0.06411693 -0.10957789 0.1482163 -0.043504383
-0.047471367 0.113580115 0.022348858 0.10566588 -0.10401242 -0.056707546 0.011032433 -0.12001353
-0.093042195 0.12265459 -0.08963871 -0.0027718497 -0.10502616 0.02005216 -0.0138681 -0.1254633
0.01656641 -0.11434601 -0.02780196 -0.115177535 0.05578747 0.08735452 0.11178055 0.08346831
0.058668647 0.047575824 -0.11411127 0.11086875 0.13473089 -0.006636141 -0.071113475 -0.039255287
-0.09532454 -0.0013978143 0.10769567 -0.058166776 -0.06764272 0.05460128

fc1.weight f4 [200, 150]
00000000: 30f1 edbc 0f92 f1bd c67b 133d 74b5 39bd
00000010: 5f0b 21be 6faa 37bd bf31 79bd ce26 a73d
00000020: 1833 e43d 25ae 793d c326 a23d d715 c5bd
00000030: 6f63 6c3d c7d2 babc d1f8 8fbc 8f6f ad3d
00000040: 5d33 873d 6480 b8bc 8dc4 ac3c 1dac 933d
00000050: 3663 273d f54b 0ebb d6ad d03d d398 a4bd
00000060: 2d90 313d 1593 c83c 999d 26bd 340a 98bd
00000070: af28 b93b ad5e e53c 7142 94bd f284 fe3d
00000080: 6f31 c33b d21e 663d 7d9f 26bd 9404 d63c
00000090: cf8c d5bb 7d57 fd3c 1c4a 4fbb 8d0a a83d
000000a0: 413d b83b bef3 3abd a30b ce3c c462 e03d
000000b0: 1cd2 94bd 1423 9f3d 6676 013e ea14 2b3d
000000c0: 06e3 6a3c 774d 013e 781a 89bd 2a31 89bd
000000d0: c00e aa3d e218 58bd 5ccd 743c 3196 433d
000000e0: 1b03 96bb 0dd8 183d d23b 32bd 3fc2 0b3b
000000f0: e4b4 fdbc a94e ccbc 48f2 adbd cf40 8ebb
00000100: 9c95 2f3e 7401 083c a985 833d 3464 67bd
00000110: 08d1 333c 56ef 19be 09c6 47bd cdc0 9b3d
00000120: af13 8dbd 0b6a 82bc 0bbc 05bd 2c92 e1bd
00000130: 47f5 f73c 75a8 5e3d f41b 9bbd 4a18 67bd
00000140: 6b71 debc 691d 973c aa08 7d3c 31b9 033e
00000150: 19d7 d2bc 07cd 203e 918e ae3c db3b 863d
00000160: bc35 3c3d 6a51 b13c 8da4 be3c 957f 9dbd
00000170: 098e d5bd a25e debd 625f 4c3b 7787 163e
00000180: 6cfe 903d ae75 173e d0c2 8d3d 438c bcbd
00000190: 4cd5 30bd 486c e8bd 1577 dbbc 32f0 4e3d
000001a0: 1df2 323d 36c9 5ebd 22cd fbbc 1045 18be
000001b0: d09b 4c3b 31c7 61bd 2251 0bbd 8286 82bc
000001c0: b41e 3ebd 18a7 ebbd 8e6a c8bc 4e8a d53d
000001d0: 5ae3 8dbd b426 9fbd bdef 33bd 73d0 043d
000001e0: c017 c9bc fc41 2ebd c684 f5bd 52a6 7bbd
000001f0: f876 8bbd 0967 5dbd 79fe 32bd ffed 36bd
00000200: ee95 b83d 0b0e 10bd 5611 35bd 0e3b 2d3d
00000210: 4b26 5abd 0c7b 01be c4b3 0dbe 4a42 b3bc
00000220: 5cb0 053c f443 cc3d f734 f03c ff58 5cbe
00000230: 17be 53bc 7872 04bc 85ef 533d 72ce 93bb
00000240: 591c 373d 0fe4 8b3d e9c0 853d 3647 9ebd
00000250: 1a4c c33c 17f1 523d 3fec 293c b1f3 f83d
00000260: a20c c13d 97fd 523d 9932 0dbe 8218 6abb
00000270: 05fe 223d 7d3d aa3b d464 57bd 5f42 f03d
00000280: 71ed 6c3d 2e32 d43d eab2 383d a1ba 71bd
00000290: a860 a0bd df39 173d 7b04 25bd 6251 9ebc
000002a0: 5bc6 03be 966e 11be d21d 39bd bff5 a4bd
000002b0: 875f 9639 987b 1d3d 1fec ecbc bc25 833d
000002c0: d8f8 65bd 5398 fbbc c267 e5bd 1225 f5bc
000002d0: 48b1 53bd 26d9 293d 1428 30bd 7004 c5bd
000002e0: 3f6f 433d 7550 b73d 5a34 903d ea66 063e
000002f0: 3ea1 253d b91c 8dbc 5d6b 96bd ff44 dbbc
00000300: 7e23 94bc 3be1 483d f54c f2bd 98c1 913c
00000310: 8da3 88bd 190d 73bc bdd1 7d3d aed3 7fbd
00000320: b4cf ae3d 2cad 9f3d ba4b 813e 78ba 063e
00000330: a9ec 603d bb54 eb3b ec13 c0bd 4651 203d
00000340: fada 04be 5b02 c93d ff45 41bd e544 dc3d
00000350: a0ab 78bd 6c32 99bd a51c 6f3d 2c83 04bd
00000360: ade1 513d c068 7cbc 4d6d b23d cf64 083e
00000370: 5f6e c03c ad3b 893b 178a 8c3d 7aef d53d
00000380: f237 3cbd 2c59 b83d 5ead 76bb 8b92 2abc
00000390: de69 9ebd ed05 83bd 7198 2cbd 59c0 71bc
000003a0: 021d 443b 119a 22bd 1f82 78bd a15a 6e3e
000003b0: 2faf f1bc 9f46 dcbc 0dc3 093e 143a 8dbd
000003c0: 5966 b53d a40c 61bc b48c dcbd b145 b7bc
000003d0: fe6d fabd 4e6d 12bb bc70 0f3b 9d16 14bd
000003e0: 26af 713d 46a7 a03d e7fb 04be e293 30be
000003f0: 943a 8cbd a189 3a3d f6f1 023e 8d33 023e
-0.029045671 -0.117954366 0.03600671 -0.045339063 -0.15726994 -0.044840273 -0.060838457 0.08161698
0.11142558 0.060957093 0.079175495 -0.09623306 0.057712015 -0.022805585 -0.0175747 0.08468544
0.06601594 -0.022522159 0.021089816 0.072105624 0.0408661 -0.0021712754 0.101894066 -0.080369614
0.043350387 0.024484197 -0.04067764 -0.07423821 0.005650602 0.027999246 -0.07239235 0.12427701
0.0059568207 0.056181736 -0.040679444 0.02612523 -0.00651703 0.030925507 -0.0031629866 0.082051374
0.0056225364 -0.045642607 0.025152033 0.10956338 -0.07266638 0.077703625 0.12642822 0.041767992
0.014336353 0.12627207 -0.06694502 -0.066988304 0.083035946 -0.052758105 0.01494154 0.047750656
-0.004578007 0.037315417 -0.04351408 0.0021325496 -0.030970044 -0.024939852 -0.08493477 -0.004341222
0.17146915 0.008301128 0.06421978 -0.056492046 0.01097513 -0.15032706 -0.048772845 0.07605133
-0.0688852 -0.015919706 -0.032650035 -0.11014208 0.030268325 0.054359872 -0.07573691 -0.05641965
-0.027153691 0.018446641 0.01544396 0.12863614 -0.025737332 0.15703212 0.021308215 0.06554385
0.045949683 0.021645267 0.023271823 -0.0769035 -0.10427482 -0.108578935 0.0031184782 0.14700113
0.07079777 0.14790985 0.06921923 -0.0920644 -0.043172166 -0.11348778 -0.026790181 0.050522037
0.04368793 -0.05439111 -0.030737463 -0.14870095 0.0031220801 -0.055121604 -0.03401292 -0.015933279
-0.046416 -0.1150648 -0.024464872 0.1042677 -0.069281295 -0.07771054 -0.043929804 0.032425355
-0.024547458 -0.042543396 -0.11988215 -0.061437912 -0.06809801 -0.05405334 -0.043699715 -0.044660565
0.09012972 -0.035169642 -0.044205986 0.042292647 -0.053259175 -0.12644595 -0.13838106 -0.021882195
0.008159723 0.099738985 0.02932213 -0.21518324 -0.012923739 -0.008083932 0.051742096 -0.004510694
0.04470477 0.06830608 0.06530935 -0.07728426 0.023839999 0.051499452 0.010371267 0.121558554
0.09426238 0.051511373 -0.13788833 -0.0035720174 0.039793033 0.0051953183 -0.05258639 0.11731409
0.05784363 0.103611335 0.0450925 -0.059015874 -0.07830936 0.036920425 -0.040287476 -0.019325916
-0.12868635 -0.14202341 -0.045194454 -0.08054685 0.00028681403 0.038447946 -0.028921185 0.06403682
-0.05614552 -0.030712282 -0.11201431 -0.029924903 -0.05168274 0.041466855 -0.04300697 -0.09619987
0.047713514 0.08950893 0.07041235 0.13125196 0.040436976 -0.01722561 -0.07344697 -0.026766298
-0.01808333 0.04904292 -0.11831085 0.017792508 -0.0667182 -0.014834666 0.0619676 -0.062457733
0.0853571 0.07796702 0.25253087 0.1315707 0.054913197 0.0071817315 -0.093788 0.03914001
-0.12974158 0.098149024 -0.047185894 0.10755328 -0.06071055 -0.0748032 0.058376927 -0.032351658
0.05124061 -0.015405834 0.08712254 0.13319705 0.023490129 0.004188022 0.06862276 0.10446067
-0.04595179 0.09001383 -0.0037639956 -0.010410915 -0.07735036 -0.06397615 -0.042137567 -0.014755332
0.0029924517 -0.03969771 -0.06067097 0.2327676 -0.02950248 -0.026889144 0.13453312 -0.06895843
0.08857412 -0.013735924 -0.107690245 -0.022372099 -0.122280106 -0.0022342983 0.0021887263 -0.03615438
0.059004925 0.07844405 -0.12986718 -0.17243913 -0.068471104 0.04554141 0.12787613 0.12714978

fc1.bias f4 [200]
00000000: 5647 903c 85a1 483d 8c9c 2fbd 7445 833c
00000010: 67dd a7bc 0a4d e23d 8598 c3bb 4fda 153d
00000020: 723c 2dbd 5ad9 80bb 937f 38bd 2c20 0dbd
00000030: 806e 0fbc d7cd c93d 6e06 24bd 447f c93d
00000040: 5d13 773c 4032 98bd d97c b3bc 6bdd 203d
00000050: b6c0 98bc 6a17 9c3d cdb3 4bbd e687 073d
00000060: 0099 343c 4e97 27bc 17cd cbbc 69c1 17bd
00000070: 77f0 7fbd 8842 f03d 34d3 0cbc a0e5 18bd
00000080: 7b51 c13d d918 d03c 8d11 cbbc b3bf 153d
00000090: d3b3 7ebd 425a 893c b7a8 743d ce9b 643d
000000a0: 1bd9 56ba 48b6 f8bd 26ae 813d c27e 8e3d
000000b0: 41a1 d53d 7d1b 953d 9e83 fc3c 2044 b5bc
000000c0: 1bec 3bbd e856 8a3c a206 7a3d 61dd 33bd
000000d0: 1b61 d33c a8d6 35bd 0aa5 ea3c 6867 b33c
000000e0: 4b97 9a3c 720a 0abc c857 8c3d 0575 cc3d
000000f0: 2281 423c 1b63 f7bc 4420 633d c4a5 b03a
00000100: fc46 86bc 3c72 06bc 763c ecbb 88f6 ee3d
00000110: 30ba 2cbd 4ee8 be3d ddc8 9c3d 9a3a cd3c
00000120: 42b7 583d 6c6f 79bd 3c64 413d 9a55 62bd
00000130: e57f ad3c ce35 e339 3dd5 1bbd 71dd 873d
00000140: f98c ac3c c72d a8bc 3c1f 9bbd f4fe d8bc
00000150: 74b3 3a3d cd96 65bd 6c72 babd 0d87 83bd
00000160: e709 063d 2e97 90bd 81de 33bd ad90 cb3d
00000170: 8bed 4c3d 79ac a03d 6078 543d b85c 43bc
00000180: f5a8 223d ab7f f83c de28 a0bd 3e9d 8bbd
00000190: 505b 66bd 76c7 1e3d 52e7 053d ca56 d53b
000001a0: ae93 c5bc 2869 49bd 9cd4 7aba 93b2 9f3c
000001b0: 765b ae3d 71a3 ad3d 4f10 61bd 48e4 013b
000001c0: a401 1abd f910 2c3d e0e3 893d efa2 353d
000001d0: 650a ba3d 4c1f 63bc 17db 453c b659 273d
000001e0: ab40 2fbd e402 66bd adaa 923d 50a2 ccbb
000001f0: 1c79 83bd 648d 793c 61bf 4dbd 99b9 363d
00000200: fc6f df3d 5de4 8ebd 441e aa3d 893f c1bd
00000210: 48a3 0ebd ccd7 753d 42da 50bd 87e1 f4bc
00000220: 2725 2b3d 8d63 a53d fb28 7bbc c39e 6a3d
00000230: e132 13bd a41c 9cbd 2a2d cb3c 7109 91bc
00000240: 1e5b d63d 273c 22bd b7fd 38bd 868a 133e
00000250: 0a68 92bd 4b1c 7d3d aaca 04bd f6fe a3ba
00000260: c9c3 d7bc 5dfa e63c 3d73 82bd 3faa 103d
00000270: 3358 c5bc eae0 efbd 85e7 42bd 01ba 4bbd
00000280: bc6d 12bd 6058 1bbd 4641 803a a816 95bd
00000290: 7c32 08ba c2a0 af3d 5990 e0bc f155 fa3c
000002a0: 1d2a d23d 62fa 473d 443c 6cbd 7824 b03c
000002b0: 5c62 ca3d 8d34 f2bc 54b3 a53d 77d4 6e3c
000002c0: 8d68 193c 8ec7 993d 0908 8fbd 1ec6 43bd
000002d0: c5a7 0bbb 96f6 c13d 470c 74bd d3ed 503d
000002e0: afb2 823c 50dc 3dbc 68c3 393d 98ad a2bc
000002f0: 0a95 9f3d 7649 7b3c fabb c73c dfa3 27bd
00000300: 5553 3b3d 2b51 98bd c3e6 f13d b7a3 bbbb
00000310: e2a6 523c 7c1f 933d 8c07 a73d 4781 af3c
0.01761214 0.048982162 -0.042873904 0.016024329 -0.020491315 0.1104985 -0.0059691095 0.03658515
-0.042293973 -0.0039321603 -0.04504354 -0.03445451 -0.008754373 0.09853714 -0.040045194 0.09838727
0.0150803 -0.074314594 -0.021910118 0.03927366 -0.01864658 0.076216534 -0.04973202 0.033088587
0.011022806 -0.010228945 -0.024878068 -0.037049685 -0.062485185 0.1173144 -0.008595277 -0.037328362
0.09439369 0.025402473 -0.024788642 0.03655977 -0.062183212 0.016766671 0.05973121 0.05581265
-0.00081958034 -0.121441424 0.06332044 0.06957771 0.10431147 0.072806336 0.030824479 -0.022127211
-0.045879465 0.016887143 0.06104148 -0.043912295 0.02580314 -0.044394165 0.02864315 0.021899894
0.01887097 -0.008425342 0.068526804 0.09983257 0.011871608 -0.030198624 0.055450693 0.0013477136
-0.01639127 -0.008205947 -0.007209356 0.11668116 -0.04216975 0.09321652 0.07655499 0.025052357
0.052909143 -0.060897276 0.04721473 -0.055257417 0.021179149 0.00043336902 -0.038045157 0.066340335
0.021063315 -0.02052964 -0.07574317 -0.026488759 0.045581296 -0.056052018 -0.091038555 -0.06422243
0.032724287 -0.07060085 -0.043913368 0.09939704 0.050031226 0.078453965 0.05187261 -0.011923961
0.03971191 0.030334314 -0.07820295 -0.06817101 -0.056239426 0.03876444 0.032691307 0.00651059
-0.02411827 -0.04917255 -0.00095684244 0.01949433 0.085135385 0.084784396 -0.054947194 0.0019819904
-0.03759922 0.042008374 0.06732917 0.04434484 0.09084014 -0.013862442 0.012076161 0.04085704
-0.04278628 -0.0561551 0.0716146 -0.006244935 -0.06419584 0.015231464 -0.05023134 0.044610593
0.10910031 -0.069771506 0.08306554 -0.094359465 -0.034823686 0.060020253 -0.050989397 -0.029892696
0.041783478 0.080756284 -0.015329595 0.057280313 -0.035937194 -0.0762265 0.02480181 -0.017704697
0.10466598 -0.039608147 -0.045163836 0.14408311 -0.0714875 0.06179456 -0.032419838 -0.0012511897
-0.026338475 0.028195554 -0.06369636 0.03531861 -0.024089908 -0.11712821 -0.047584075 -0.049737934
-0.035749182 -0.037926078 0.0009785078 -0.07279712 -0.0005195511 0.08575584 -0.02741258 0.030558558
0.10261939 0.048822768 -0.05767466 0.021501765 0.09882042 -0.029566074 0.08090845 0.014577023
0.009363306 0.07508765 -0.069839545 -0.04779636 -0.0021309715 0.09470861 -0.05958202 0.051008057
0.015954344 -0.011588171 0.04535237 -0.019858167 0.07792099 0.015337339 0.024381626 -0.040927764
0.04573377 -0.074373566 0.118115924 -0.0057263034 0.012857171 0.071837395 0.08155736 0.021423949

fc2.weight f4 [1011, 200]
00000000: 738c 5abd f79f 223d 3ea0 7e3d ced0 42bc
00000010: 4a17 813d e681 8dbd e441 a4bc 39e5 9cbd
00000020: 9cbc a0bb 1cf2 81bd 3337 14bd 3a4e 1bbd
00000030: 9e9b 5cbc d496 8e3d 41c8 83bd 2269 683d
00000040: 9d01 3bbc 4d2e b0bc c964 a23c d0f1 353d
00000050: 557b 3cbd 4e7f ebbc 6930 f73c aa94 303d
00000060: 7ecc 66bd 2120 0abc 1c43 f13c 4512 c3bc
00000070: 9e17 973b 1b58 493d 1491 92bd 80c3 1fbd
00000080: af80 b43b eaf3 f73c db83 48bd 0e93 383d
00000090: dc94 c83c 94b8 65bd 80d0 a63d 87c2 41bd
000000a0: dce6 af3d 8450 e7bc 9f2e af3c f701 7bbd
000000b0: 0155 363d f824 66bd 13f5 823d ec1d 88bd
000000c0: 4899 c6ba 1c29 0f3c 4e17 353d dac6 da3d
000000d0: 1fc4 c4bd 1d8c e33c b4ba 223d 253f c53b
000000e0: 0959 a8bd 8fbc 443d 5c71 fcbc 021e bfbb
000000f0: 3981 4bbc 6aff ffbc d14c 3c3d 1db6 cf3c
00000100: 7583 41bd d0b7 c43c 2d66 2cbd 5bc6 f9bc
00000110: 70b8 813d 3342 49bd 5db0 d23c 6afc 413c
00000120: 7fae 99bd 631f 6b3c 9beb 8abc 54ec 32bd
00000130: feb2 893b b9f2 133d 7582 71bd 4f86 f8bc
00000140: 5d5c 6a3d 5055 b3bc 7bac b83a d76f a0bd
00000150: 71d7 82bd ff10 4abb 8d7b f3bc 07e8 54bd
00000160: e907 5d3d 4b8f 6c3c b0da 6cbc b20b 01bc
00000170: 14a3 02bd fe08 b3bd 9f78 77bb 4a5b 2cbd
00000180: 9145 4ebd 31b8 58bd b440 18bd 6c5b 97bd
00000190: cc05 4d3d aace 13bd 4d1f 2e3d 756b c6ba
000001a0: aebd a2bc 2412 1f3b 16c4 dcbc 4dd9 69bd
000001b0: d53f 39bd a4dd f8bc 6f4e e7bc 9cc8 713d
000001c0: 4ebd 033d dc6d 503c f955 8b3d 6197 76bd
000001d0: 2744 573d b197 d6bd 7de4 f63b a583 b1bd
000001e0: 4def 593c 34a2 0ebd 687c 1b3d 4fe1 c4bc
000001f0: c295 00bd 3905 833d 5f7a 8b3a 50ff 293d
00000200: 45a9 053e 17cd 803d 4c3d 9fbc 1d3d 413d
00000210: efdd 883d fd99 d5bc 421b 1b3d 0b48 523d
00000220: c630 a33d d3cb b8bd bc86 5abc 57db 383c
00000230: d546 2b3d c32b 733d f93b 4e3d 40e0 d2ba
00000240: 6a05 cb3c 5870 b0ba 5a25 6e3d 269a d43d
00000250: c0a3 313d 7b0d 51bd 1004 3cbd 394a 3abc
00000260: dec5 12bc 1377 29bd b64c 013d 3fba 1bbd
00000270: d84a 9a3c 7138 36bd b8e8 3cbd f3d5 813d
00000280: 21a1 8d3d 589f 78bd 8957 f23b a88a 533d
00000290: efda 07bd eb96 5d3c 85f1 80bc b05f 15bd
000002a0: 7c2e f53d 35a3 95bc 454d 1c3d 79b7 94bb
000002b0: 0368 b83d d131 d03c 352d 733d c366 5e3d
000002c0: f16d 88bc 86db 383c 4fa3 a13d 17f8 b73a
000002d0: 7fa6 2e3d 238d 51bd 6741 30bc 8f2b 4fbb
000002e0: 9ee5 a33c 0533 833d d03d 193d 7530 9bbc
000002f0: f32e 7abd 6ddd 56bc efc1 ba3c 9f50 3e3d
00000300: 91d6 653d 7370 f33c 2a97 6b3d 6d82 fc3c
00000310: 4459 28bd e520 033d d1d8 34bd ee10 673d
00000320: 7dc2 453d 6495 31bd f090 7dbd 9fa8 a3bd
00000330: 2457 563c da00 24bd 67c8 85bd d9e7 e63c
00000340: c52c 29bc c027 833d 56f2 013c b86a c7bc
00000350: 2e6a e03c 2120 d33d e5ea dcbc 4ede 03bb
00000360: 1081 fabc 38db 99bc 8acb 53bd 0e31 0abd
00000370: 738f a73c d0d5 86bd f5fe d3bc 9dbc c73c
00000380: 37bf 993c 171f e23c 4c4c e13b 05c1 45bd
00000390: 1845 8c3c 7256 dfbc 910f c2bd 7e84 acbd
000003a0: 4d7d 72bd c9b6 88bd 4864 1fbc da1c 8abb
000003b0: 0791 963d c001 2cbd ecf2 bc3d 1bea 6fbd
000003c0: 44a3 20bc 6d4b 05bd 8bdf b6bd fe40 143d
000003d0: ce61 44bd 7b5d 353d 4bb2 fcba c645 30bd
000003e0: 15b0 723c 1602 d7bc d214 59bc 2e1e 5c3d
000003f0: 9df1 cfbc 8945 3fbc 1818 9ebc 60a0 813d
-0.0533566 0.039703336 0.062164538 -0.011890603 0.0630327 -0.06909542 -0.02005095 -0.07660908
-0.0049052965 -0.06345007 -0.036185455 -0.0379164 -0.013464836 0.06962362 -0.0643468 0.056740887
-0.011413959 -0.021506453 0.019823449 0.044420063 -0.046016056 -0.028747227 0.030174451 0.043110527
-0.056347363 -0.008430512 0.029450946 -0.023812423 0.0046109697 0.04915629 -0.07156578 -0.039004803
0.0055085043 0.030267674 -0.048953872 0.045062117 0.024485044 -0.05608423 0.08145237 -0.047304656
0.08588955 -0.028236635 0.021384535 -0.06128117 0.04451466 -0.0561876 0.063944004 -0.06646332
-0.0015151883 0.008737829 0.04421168 0.10682459 -0.0960772 0.027776772 0.039728835 0.0060194903
-0.08220107 0.048031386 -0.030815773 -0.0058324346 -0.012420946 -0.03124972 0.045971695 0.025355393
-0.047244508 0.02401343 -0.04208963 -0.030490091 0.06334007 -0.049135398 0.025718862 0.011839965
-0.075039856 0.014350745 -0.016958049 -0.04368241 0.0042022457 0.03612015 -0.058962304 -0.03033748
0.05721699 -0.021891266 0.0014089489 -0.07833832 -0.063887484 -0.0030832884 -0.029722 -0.05197909
0.05396262 0.014438461 -0.014456436 -0.007876324 -0.031893805 -0.087419495 -0.0037761105 -0.042079248
-0.050359312 -0.052910034 -0.03717108 -0.07390484 0.050054356 -0.036085762 0.04251032 -0.0015138226
-0.019865837 0.0024272287 -0.02694897 -0.057092 -0.04522689 -0.030379124 -0.028235642 0.059029207
0.032162957 0.012721505 0.06803507 -0.06020296 0.05255523 -0.104781516 0.007534562 -0.08667687
0.013301683 -0.034822658 0.03796044 -0.024033217 -0.03139282 0.063974805 0.0010641328 0.04150325
0.13052852 0.06289118 -0.019438408 0.047177423 0.066829555 -0.026074404 0.037867792 0.051338237
0.07968287 -0.090232514 -0.013337787 0.011282763 0.041815598 0.059367906 0.050350163 -0.001608856
0.024782855 -0.0013461215 0.05814109 0.10380964 0.043369055 -0.051038247 -0.04590231 -0.011370235
-0.008958308 -0.041373324 0.031567298 -0.038019415 0.018834516 -0.04448742 -0.046120375 0.06339636
0.069154985 -0.060698837 0.007395689 0.051645905 -0.033167776 0.013524751 -0.015740165 -0.036468208
0.11971757 -0.0182663 0.038159627 -0.004538473 0.09004214 0.02541438 0.059369285 0.05429722
-0.016653987 0.011282807 0.07892477 0.0014035729 0.04263925 -0.05115999 -0.010757781 -0.0031611656
0.020006951 0.064062156 0.037412465 -0.018944005 -0.06107993 -0.013114315 0.022797553 0.046463605
0.05611283 0.029716706 0.05751721 0.03082391 -0.041100755 0.032013793 -0.044152085 0.05641263
0.04828118 -0.04335536 -0.0619058 -0.07991146 0.013082299 -0.040039875 -0.06532364 0.028186725
-0.010325615 0.06404066 0.007931313 -0.02434288 0.02739438 0.103088625 -0.026967475 -0.0020121518
-0.03057912 -0.01878129 -0.05170778 -0.03373819 0.020454144 -0.0658375 -0.025878409 0.02438193
0.018767936 0.027602715 0.0068755504 -0.04827978 0.01712279 -0.0272629 -0.09475625 -0.084237084
-0.059201527 -0.066754885 -0.009728499 -0.004214865 0.073518805 -0.041993856 0.09226021 -0.05857287
-0.009804551 -0.032542635 -0.08929356 0.036194794 -0.047944836 0.044278603 -0.001927921 -0.04303529
0.014812489 -0.026246112 -0.013249593 0.05373972 -0.025383765 -0.011674293 -0.019298598 0.06329417

fc2.bias f4 [1011]
00000000: 904e 633b e945 52bd 0d15 df3c 761a d4bc
00000010: adcc 5fbb 6c94 233d cd5a 533d 2707 3d3d
00000020: 587e d2bc 9e38 c4bc bd43 153d da4a ac3c
00000030: 16ee b7bc c335 0abd af78 35bc 728d de3a
00000040: decd 0dbd d409 44bd ae2b eebc 9a60 d73c
00000050: 98d3 3bbd 35b2 87bc 1925 ddbc 4fa9 13bd
00000060: f5fe 8b3b 15f0 043c 6df9 c53c 4615 273d
00000070: 0d41 c7bc 6dc8 52bd 6455 0dbd e55e ffbc
00000080: 6185 303d 2ac7 2a3c 4c69 a0bb 69a2 8ebc
00000090: 3f72 fa3c 7f6f 5dbc b325 1b3c b93e 1dbd
000000a0: 8dc9 823c 47e6 263d fd50 e13b 87ba 18bd
000000b0: a6c0 073d 9452 a2bb 7c84 cc3a 84d3 b8b7
000000c0: 2e29 443d 418c 393d 14f5 5f3d f0b9 d3bc
000000d0: 3424 1a3c 7c18 023a 22aa 543d 7810 0dbd
000000e0: c9be dabc a6c6 b3bc a801 183c 1a91 ac3c
000000f0: 9d64 3d3d 6f0c 56bd f5cb 1a3d f4c0 0a3d
00000100: fd5f c63a 5321 52bd 23db 6b3d 69b2 843c
00000110: 088b e9bc ce7d 3ebd c0b3 4e3d 586a 6a3c
00000120: 5405 51bd 1ab3 47bb ea23 143c ef2e 073d
00000130: 3911 133b c563 88bb 0f0a 103c 02b9 5d3b
00000140: 6459 04bd 1dda 5ebd 05cb 053d 0f64 5fbd
00000150: 7c6c 18bd c430 3b3c d508 53bd 20c4 d33b
00000160: c6a4 c53b 0107 3abc ef75 9a3d 7ee4 efbc
00000170: 841e 193d 7c67 573d f9a3 4a3d da33 75bc
00000180: 4ebc 04bd 0bf2 643c 24a2 dfbb 2604 0ebd
00000190: b1b7 f3bc 8259 fc3c 7757 5c3c 0cc5 28bb
000001a0: 95d6 79bd 81aa 123d 2c3b 9cbc 19e0 263d
000001b0: 9b14 18bd 4689 143d 91c4 823d 5306 013c
000001c0: a91d 55bc b951 eb3a 003f df3c 5fbd fdbc
000001d0: ebb7 543c e3a7 bebc 386a 40bc 34c5 99bc
000001e0: e83f 3d3d eb40 babc 8224 5b3d a54c e3bb
000001f0: 6fbf af3c 675b 863c 6669 b13c bc07 683c
00000200: acd2 23bd a062 3f3d 4a55 dc3c ba98 f1bc
00000210: 4931 1cbd 4d93 ad3c 46ed f83c 734c 00ba
00000220: badb 09bd 1b43 d5bc 2804 043d fd53 db3b
00000230: 38af aa3c a368 dbbc 130d 183d 17b4 9ebc
00000240: ee23 c9bb 5ae5 d6bb ccd9 393c 853a 73bd
00000250: b388 4e3d bdc1 36bc 6766 f4bc fe5e 29bd
00000260: 9618 00bc cf5a 37bd 2744 16bd 5801 9cbc
00000270: 69b7 65bc 3d72 233d ed8e 603c 93b5 fd3c
00000280: 862a 9b3c eb79 c93b e968 f53c 5967 bebc
00000290: cc2d 1d3c 1174 2dbc 89b8 1dbd 5710 ed3a
000002a0: effe 6ebc 2cdd ce3c 2666 d9bc e688 f63b
000002b0: f9f5 2cbd 87ff 803b 8de2 603b ce24 dd3b
000002c0: 7c4d 26bd 597f ca3c ba85 1a3d ab6f 9d3c
000002d0: 2a12 1d3d 203b 05bd d016 5a3d 6549 2c3d
000002e0: 1484 243d 46c8 a5bc ff52 493d 03e1 283d
000002f0: 9cb5 a8bb 5245 6c3c dea4 98bc c5a0 b9bc
00000300: 01a2 f6bc 17ab d43b c32e 8ebb 867a e9bc
00000310: 2e65 77bc 4a2f 7cbb 0a43 3f3d 4721 093c
00000320: abc1 663d 74e7 533c 89b9 8d3c 0dc1 8fbc
00000330: 0a2b 91bc 71be 86bd dbb5 143d 5826 41bd
00000340: cdee 5cbd e40a 54bd ed95 403d 00fe f2bc
00000350: 9a80 003d 4ccf bcbc a530 02bc cd44 0a3a
00000360: 52c1 59bd 000b 1ebd 1bd7 863c 2f79 dbbc
00000370: f3d9 303d 3214 f53c 1c66 9fbc 4efc 193c
00000380: 5cce 5a3c f79d 073d 6697 59bd 40f4 aabc
00000390: 57cc d5bb f684 fe3c 87bf 06bd 127b 333d
000003a0: b64f 463b 5026 ef3c 94f9 043d 7642 763c
000003b0: 29d9 26bd 18cf 423d 6b8f d33c 6cf3 2fbc
000003c0: da41 453d 8b21 67bd 54e3 97bc 87a3 2abc
000003d0: 0fb8 403d 623a 643d 61a4 05bd 36cd 363d
000003e0: c8de 363d 1ca3 8fbb be5d 6f3b 380f 37bd
000003f0: e842 513d a9d4 963c ca7a e0bc de93 333c
0.0034684278 -0.051336203 0.027231717 -0.025891524 -0.0034149096 0.039936468 0.051600266 0.0461494
-0.025695011 -0.023952778 0.036441553 0.021031786 -0.022452395 -0.033742677 -0.0110761365 0.001697941
-0.03462016 -0.047860935 -0.029073562 0.02629118 -0.04585609 -0.016564468 -0.026995229 -0.036050137
0.0042723366 0.008113881 0.024166787 0.040791772 -0.02432301 -0.051460672 -0.034505263 -0.031173179
0.04309595 0.010423461 -0.004895365 -0.017411428 0.030572055 -0.013515352 0.009469437 -0.038389895
0.015965248 0.040746953 0.0068761096 -0.03728726 0.03314271 -0.0049536917 0.0015603448 -2.2033004e-05
0.047890835 0.045299772 0.054677084 -0.025845498 0.009408046 0.0004962755 0.051920064 -0.034439534
-0.026702302 -0.021945309 0.009277739 0.021065284 0.04623853 -0.05225795 0.037792165 0.03387542
0.0015134808 -0.05130131 0.057582032 0.016198354 -0.028508678 -0.046506695 0.05046439 0.014307581
-0.051030472 -0.0030471743 0.009041766 0.033003744 0.0022440685 -0.004162284 0.008791461 0.0033832197
-0.032311812 -0.054407228 0.032664318 -0.054538783 -0.037212834 0.011425201 -0.051522095 0.006462589
0.0060316054 -0.011354209 0.07542025 -0.029283758 0.037382618 0.052588925 0.049472783 -0.014965976
-0.032406144 0.013973723 -0.0068247486 -0.034671925 -0.029750677 0.0308044 0.013448588 -0.0025752215
-0.060995657 0.035807136 -0.019071184 0.04074106 -0.037129026 0.036263727 0.06385148 0.007875043
-0.01300756 0.0017953432 0.02725172 -0.030974088 0.012983303 -0.023273414 -0.0117440745 -0.018770792
0.046203524 -0.022736033 0.053501613 -0.006936627 0.021453587 0.016401006 0.021656703 0.014162
-0.039995834 0.046724916 0.026896138 -0.029491771 -0.03813294 0.021188403 0.030386578 -0.00048942043
-0.033656813 -0.026032975 0.032230526 0.006693362 0.020835504 -0.026783293 0.037121844 -0.019372983
-0.0061383164 -0.0065581026 0.011343431 -0.05938198 0.050423335 -0.011154589 -0.029833985 -0.041350357
-0.007818362 -0.044764336 -0.03668609 -0.01904361 -0.014020779 0.039903868 0.013705951 0.03097037
0.018941175 0.006148567 0.029957252 -0.02324264 0.009593438 -0.010586754 -0.038506065 0.0018086535
-0.014587148 0.025251947 -0.026537966 0.007523644 -0.042226765 0.0039367112 0.0034314722 0.006748772
-0.04060124 0.024718927 0.037725188 0.019218286 0.0383474 -0.03252709 0.053244412 0.042062182
0.040165022 -0.0202371 0.049151417 0.041230213 -0.0051486026 0.014420824 -0.018633302 -0.022659669
-0.030106546 0.006490122 -0.0043390705 -0.028500807 -0.015099807 -0.0038480335 0.046694793 0.00836975
0.05633704 0.012933601 0.017300384 -0.017548108 -0.017720718 -0.065792926 0.036306243 -0.047155708
-0.053938676 -0.0517682 0.04701798 -0.029662132 0.031372644 -0.023048066 -0.007946168 0.00052745343
-0.05316288 -0.03858471 0.016459992 -0.026791183 0.043176603 0.029916856 -0.01945787 0.009398533
0.013354864 0.03310963 -0.0531229 -0.02086842 -0.0065246033 0.03106926 -0.0328975 0.04381854
0.0030259914 0.029193074 0.03246458 0.015030494 -0.040734444 0.04756078 0.025825223 -0.010739189
0.048158504 -0.056428473 -0.018541016 -0.0104149645 0.047050532 0.05571974 -0.032627467 0.0446293
0.044646055 -0.004383458 0.003652438 -0.044692248 0.051089197 0.018411951 -0.0274023 0.010960547
