pesosTipos.pth (torch, 205227 bytes, 10 tensors)

conv.weight f4 [5, 3, 2, 2]
-0.10393749 0.12769161 0.25403285 -0.29223707 -0.13886829 0.13217698 -0.1195676 -0.024531314
0.14158313 0.19385013 0.12697531 -0.08080233 -0.05686257 0.24936397 -0.1921542 0.08753106
0.0250723 0.03268812 0.09467065 -0.18406892 0.24472591 -0.25325465 0.0141708255 0.114306666
0.4659378 0.6690503 -0.77817047 2.2401893 0.07453284 -0.8276461 0.25848132 0.967041
0.86709905 0.51435167 1.2567575 2.470057 2.727946 0.71273 4.446229 -1.6027546
0.52887183 2.5560753 0.7556401 -0.2740757 -2.0563865 -0.58086365 -1.5846909 -3.0487149
-0.26616096 0.20441134 -0.091090605 -0.28118348 -0.25135383 -0.16277692 0.0795102 -0.3186867
0.23567984 -0.19168113 0.15561086 -0.08134686
00000000: 2edd d4bd 97c1 023e 9810 823e 19a0 95be
00000010: 7d33 0ebe 6759 073e dcdf f4bd e5f5 c8bc
00000020: 2bfb 103e a680 463e d105 023e b17b a5bd
00000030: bae8 68bd 4559 7f3e 12c4 44be 7c43 b33d
00000040: 6d64 cd3c fae3 053d b0e2 c13d 907c 3cbe
00000050: 6e99 7a3e 98aa 81be c02c 683c 9d19 ea3d
00000060: 668f ee3e e146 2b3f 2e36 47bf 435f 0f40
00000070: aca4 983d 9de0 53bf aa57 843e 0090 773f
00000080: 34fa 5d3f 8dac 033f 6edd a03f 6a15 1e40
00000090: ab96 2e40 7975 363f 8247 8e40 1027 cdbf
000000a0: 2564 073f bd96 2340 a171 413f a653 8cbe
000000b0: d69b 03c0 7bb3 14bf 27d7 cabf 251e 43c0
000000c0: 4046 88be 3551 513e b68d babd 48f7 8fbe
000000d0: 73b1 80be feae 26be 3ed6 a23d e72a a3be
000000e0: 0e56 713e 0f48 44be 7458 1f3e 2f99 a6bd

conv.bias f4 [5]
-0.31446472 -0.1547677 -0.39757642 1.9397079 0.19856437
00000000: 8501 a1be 6d7b 1ebe 238f cbbe 5948 f83f
00000010: 7554 4b3e

conv2.weight f4 [3, 5, 2, 2]
0.21669893 -0.024483152 0.017361455 0.18698576 -0.14640364 -0.18347077 0.16575487 0.07827901
-1.2220023 -1.5339274 1.779644 -0.7539753 0.9421358 2.4517674 -2.6255608 1.8788999
-0.1048221 0.13335007 0.13456325 -0.12772773 -0.06666737 0.044427633 -0.012455027 0.047715437
-0.032784376 -0.05883418 0.032318834 0.059185598 0.058231633 0.38754168 0.45355463 0.7402419
-0.30661023 -0.24383304 -0.61126596 0.041989982 -0.1527918 -0.064399436 0.19552042 -0.014023022
0.060140043 0.04023613 0.14201123 -0.026466167 -0.11286009 -0.028907925 -0.14856306 0.15394616
-0.4797378 -2.058013 0.19458492 -0.6315361 2.158551 3.4893625 0.13798271 -0.54689246
-0.11315857 -0.15226535 0.0022231792 -0.26483342
00000000: 53e6 5d3e e490 c8bc 9c39 8e3c 3279 3f3e
00000010: d6ea 15be c3df 3bbe a5bb 293e bf50 a03d
00000020: 926a 9cbf bc57 c4bf 60cb e33f 8604 41bf
00000030: d02f 713f c2e9 1c40 3009 28c0 cb7f f03f
00000040: f8ac d6bd ec8c 083e f3ca 093e 0fcb 02be
00000050: e788 88bd c0f9 353d 2b10 4cbc 4371 433d
00000060: e948 06bd 1cfc 70bd c160 043d 996c 723d
00000070: 4b84 6e3d dd6b c63e 5038 e83e 7e80 3d3f
00000080: 04fc 9cbe 5eaf 79be ed7b 1cbf b0fd 2b3d
00000090: 7475 1cbe dae3 83bd 8136 483e d1c0 65bc
000000a0: 6855 763d a4ce 243d 646b 113e 93cf d8bc
000000b0: 3123 e7bd 50d0 ecbc ea20 18be 10a4 1d3e
000000c0: 31a0 f5be 7cb6 03c0 4541 473e 5aac 21bf
000000d0: b325 0a40 b751 5f40 574b 0d3e 2501 0cbf
000000e0: aebf e7bd 73eb 1bbe c2b2 113b 3f98 87be

conv2.bias f4 [3]
0.92791754 -0.2390818 -0.09385224
00000000: 018c 6d3f dcd1 74be 9a35 c0bd

fc0.weight f4 [80, 72]
0.29775372 -0.5168275 0.021435373 0.42456108 -0.057268623 0.23336588 0.3095271 0.051188692
-0.10494177 0.09758208 0.08037271 0.19067189 0.09926972 -0.09592026 0.11329248 -0.21670741
0.13226594 0.03943355 -0.060845897 -0.116745174 -0.28094432 -0.13080235 -0.05156607 0.20490827
-0.07660824 0.11537513 0.08352532 -0.0064729997 0.046046883 0.006366514 0.09012566 -0.06501539
-0.023931818 -0.104183674 -0.11025479 0.09455416 -0.076725796 -0.1332468 -0.1001328 0.05802
0.013593697 0.11601658 -0.07176951 0.015057783 0.044342007 0.107514486 -0.08504505 -0.06135713
0.49947795 -0.16424672 -0.48123428 0.48108628 0.14297554 0.058045663 0.74289465 -0.13389759
-0.1464483 0.3496578 0.032955006 0.0030025947 -0.10791669 -0.18275191 0.06365915 -0.08211889
-0.14247641 0.03661353 -0.08665943 -0.16997395 -0.1870301 -0.70696056 -0.26570877 0.1749389
0.28628442 -0.044866618 0.07619053 -0.53009284 0.107956104 -0.21885176 0.021788055 0.05641899
0.1154685 -0.6011737 0.32802707 -0.23706453 0.032028835 -0.110819966 0.32308915 -0.45058972
-0.08395793 -0.19757228 0.0508473 0.008271589 -0.07624081 0.16276474 0.3016559 0.03835698
0.016467582 0.020634878 0.04761611 0.10663011 0.012269259 -0.08654282 -0.082822226 0.050365753
-0.077342615 0.10331066 0.05571423 0.0770916 -0.07396401 -0.102921546 0.09164313 -0.089626186
0.08365918 0.02539286 0.1118493 -0.0010524086 -0.018572435 -0.09487412 -0.06042895 -0.0811961
0.51456726 0.42794257 -0.105174184 -0.77424735 -0.32531685 -0.05347351 0.3890993 -0.1801085
0.21667977 -0.90066385 -0.15974382 0.17883536 -0.055961505 0.13728549 0.54283744 -0.81349766
-0.0027270415 0.12813985 -0.07544974 -0.035850726 -0.2582017 0.08323904 0.77074516 0.20137708
-0.42078543 -0.13227321 0.10806571 -0.40521687 0.34707022 -0.031526264 -0.24548091 -0.2666121
-0.3833301 0.21688527 0.20742092 -0.044033237 0.11368969 -0.027651127 -0.485379 0.2332449
0.13341248 -0.034676876 0.2637042 -0.29021117 -0.45151997 -0.010459828 0.090848334 0.09427691
-0.060935955 0.038515437 0.034274742 -0.005785947 0.11167352 0.069035016 -0.076776944 0.20970877
0.06797411 -0.0396533 -0.06444558 0.059651654 0.08745678 0.012659902 0.14457309 -0.06559145
0.033890188 -0.10691165 -0.07671175 -0.1107892 0.061836626 0.039362285 0.11106696 0.0795339
-0.1753189 -0.46849835 0.098442234 -0.44882494 0.3089593 0.45387033 -0.76616055 -0.57899535
-0.34401825 -0.16828865 0.42999986 0.10738864 -0.18840411 -0.08813492 -0.471692 -0.008106783
0.5958204 -0.02747937 0.33912215 -0.37782642 -0.8597287 -0.23016314 0.37892696 0.20504418
-0.2480677 -0.0996959 0.32460028 0.5297397 -0.18376921 0.4053689 -0.3796768 -0.5937204
-0.17782553 0.6461341 -0.33029085 -0.1284967 -0.30417988 -0.35521907 -0.5183297 -0.037957348
0.31720492 0.17598912 0.5096961 -0.38849232 -0.3975253 -0.55939937 -0.20455807 -0.053410266
-0.07746232 0.123473205 0.032522842 0.07533134 -0.097688526 -0.08005949 0.06031514 0.2278905
0.12093339 0.067126706 -0.05830155 -0.06871728 -0.10435418 0.06893701 0.14849092 0.035001367
00000000: 2d73 983e cf4e 04bf 3c99 af3c 1260 d93e
00000010: 8192 6abd 77f7 6e3e 567a 9e3e 3cab 513d
00000020: b6eb d6bd 1dd9 c73d 739a a43d 7e3f 433e
00000030: ec4d cb3d d771 c4bd e305 e83d 8ce8 5dbe
00000040: b970 073e 1385 213d 8c39 79bd 1818 efbd
00000050: efd7 8fbe 0df1 05be f236 53bd 79d3 513e
00000060: c8e4 9cbd cc49 ec3d 530f ab3d 751b d4bb
00000070: a89b 3c3d 319e d03b cd93 b83d ca26 85bd
00000080: a90c c4bc 405e d5bd 43cd e1bd 9da5 c13d
00000090: 6a22 9dbd d971 08be 6d12 cdbd 61a6 6d3d
000000a0: 19b8 5e3c 1a9a ed3d e5fb 92bd ebb4 763c
000000b0: f79f 353d 8e30 dc3d 192c aebd 9d51 7bbd
000000c0: 93bb ff3e 4b30 28be 5764 f6be f150 f63e
000000d0: 2e68 123e 4ac1 6d3d 582e 3e3f 731c 09be
000000e0: 8bf6 15be 5906 b33e d4fb 063d 2ec7 443b
000000f0: 6d03 ddbd 5123 3bbe ba5f 823d f32d a8bd
00000100: 56e5 11be 12f8 153d 807a b1bd a70d 2ebe
00000110: d284 3fbe 5efb 34bf fb0a 88be 2f23 333e
00000120: df93 923e 0fc6 37bd c809 9c3d 2ab4 07bf
00000130: 1718 dd3d ad1a 60be dd7c b23c 9917 673d
00000140: c07a ec3d 85e6 19bf 2af3 a73e 0bc1 72be
00000150: ab30 033d 94f5 e2bd f16b a53e b2b3 e6be
00000160: 23f2 abbd 6350 4abe 4245 503d 8f85 073c
00000170: 2424 9cbd cdab 263e a472 9a3e 351c 1d3d
00000180: 06e7 863c 7a0a a93c 1c09 433d e360 da3d
00000190: 0105 493c 5d3d b1bd b39e a9bd 524c 4e3d
000001a0: ce65 9ebd 8a94 d33d 9b34 643d 33e2 9d3d
000001b0: 717a 97bd 88c8 d2bd 65af bb3d ef8d b7bd
000001c0: 8155 ab3d b004 d03c 3f11 e53d f9f0 89ba
000001d0: 3825 98bc 5d4d c2bd 5984 77bd 244a a6bd
000001e0: aeba 033f 4a1b db3e 9065 d7bd 1335 46bf
000001f0: ee8f a6be 0a07 5bbd 0638 c73e 5d6e 38be
00000200: 4de1 5d3e e891 66bf e293 23be 9e20 373e
00000210: e437 65bd 9194 0c3e 65f7 0a3f 6241 50bf
00000220: 2ab8 32bb 1837 033e 6585 9abd 36d8 12bd
00000230: 0333 84be 3b79 aa3d 8e4f 453f cb35 4e3e
00000240: 3071 d7be a172 07be 8e51 dd3d 9678 cfbe
00000250: 30b3 b13e af21 01bd 595f 7bbe 6281 88be
00000260: d843 c4be 2c17 5e3e 2666 543e 325c 34bd
00000270: 24d6 e83d 9e84 e2bc 9983 f8be c0d7 6e3e
00000280: 489d 083e 5709 0ebd 3d04 873e 8f96 94be
00000290: a02d e7be b35f 2bbc b10e ba3d 4114 c13d
000002a0: fb97 79bd 5dc2 1d3d ac63 0c3d 0b98 bdbb
000002b0: 16b5 e43d 3b62 8d3d 3b3d 9dbd e5bd 563e
000002c0: 0336 8b3d 806b 22bd 0bfc 83bd 4b55 743d
000002d0: 8a1c b33d 7a6b 4f3c f80a 143e cf54 86bd
000002e0: 70d0 0a3d 7ff4 dabd 0d1b 9dbd 73e5 e2bd
000002f0: 6748 7d3d 593a 213d 1377 e33d abe2 a23d
00000300: cc86 33be 04df efbe 159c c93d 62cc e5be
00000310: ea2f 9e3e b161 e83e 1923 44bf 0a39 14bf
00000320: 2923 b0be dc53 2cbe f128 dc3e 93ee db3d
00000330: 02ed 40be 1580 b4bd 9d81 f1be 50d2 04bc
00000340: b087 183f 6a1c e1bc 6ba1 ad3e 7772 c1be
00000350: 2e17 5cbf e3af 6bbe b702 c23e 1af7 513e
00000360: 7605 7ebe 5d2d ccbd 0232 a63e 059d 073f
00000370: ff2d 3cbe 838c cf3e ff64 c2be 0ffe 17bf
00000380: e517 36be 0b69 253f e21b a9be a494 03be
00000390: 77bd 9bbe 46df b5be 41b1 04bf 2a79 1bbd
000003a0: af68 a23e 7e36 343e 727b 023f 77e8 c6be
000003b0: 7088 cbbe cc34 0fbf ac77 51be b9c4 5abd
000003c0: 91a4 9ebd 85df fc3d ac36 053d 5147 9a3d
000003d0: ec10 c8bd 3bf6 a3bd 020d 773d 215c 693e
000003e0: edab f73d ba79 893d 9bcd 6ebd a5bb 8cbd
000003f0: a5b7 d5bd d92e 8d3d 010e 183e 985d 0f3d

fc0.bias f4 [80]
-0.05874961 -0.15840738 0.05354492 0.24129556 -0.06522979 -0.17695521 -0.085409716 -0.004501093
0.025113467 -0.10511227 0.0314792 0.045323867 -0.025187891 -0.09073288 -0.07035981 0.020651134
-0.06429099 0.106639445 0.051727783 -0.008046609 -0.005335905 0.07508378 -0.029922571 0.031532332
0.17741966 0.097256534 -0.109076984 -0.055733643 0.07265776 0.014244554 -0.09585775 -0.09175582
-0.09407221 0.007912207 0.03277048 0.040712614 -0.10845951 0.056572255 -0.074558444 0.09337129
0.07057679 -0.0022544304 -0.0017522211 0.055262 0.05377656 -0.0062454888 0.071692735 -0.0315537
0.017438084 0.020738937 0.060409456 0.24358785 -0.09846055 0.073943816 0.10255308 -0.08897318
0.04433142 0.11960507 0.01776136 -0.10951233 0.056190304 0.123690635 -0.07929614 -0.11760577
-0.045085415 -0.09723103 -0.15350051 0.20116448 -0.007010501 0.03223514 0.0017723924 -0.0984893
0.0358226 0.011829083 0.017663332 0.0822686 0.23388189 -0.12913421 -0.019172564 -0.05024696
00000000: 6ea3 70bd 8b35 22be eb51 5b3d 2f16 773e
00000010: 3297 85bd bf33 35be 4aeb aebd e87d 93bb
00000020: c2ba cd3c 1a45 d7bd 55f0 003d 85a5 393d
00000030: d656 cebc 29d2 b9bd ce18 90bd 912c a93c
00000040: ffaa 83bd c865 da3d 83e0 533d edd5 03bc
00000050: d1d8 aebb 86c5 993d 2e20 f5bc 0c28 013d
00000060: 80ad 353e 6f2e c73d c163 dfbd f648 64bd
00000070: 97cd 943d fd61 693c 1151 c4bd 7aea bbbd
00000080: eea8 c0bd 34a2 013c 573a 063d 45c2 263d
00000090: 0520 debd 4fb8 673d 19b2 98bd 7239 bf3d
000000a0: 908a 903d 11bf 13bb c9aa e5ba 685a 623d
000000b0: cf44 5c3d f5a6 ccbb a4d3 923d 743e 01bd
000000c0: 50da 8e3c b4e4 a93c e86f 773d 186f 793e
000000d0: afa5 c9bd db6f 973d 5907 d23d 9237 b6bd
000000e0: dd94 353d 81f3 f43d 4680 913c 0048 e0bd
000000f0: ce27 663d 8451 fd3d 0466 a2bd 4bdb f0bd
00000100: 7cab 38bd 1021 c7bd 3d2f 1dbe 10fe 4d3e
00000110: 58b8 e5bb ff08 043d 9f4f e83a c2b4 c9bd
00000120: b8ba 123d c5ce 413c b1b2 903c 717c a83d
00000130: bc7e 6f3e c23b 04be c80f 9dbc c2cf 4dbd

fc1.weight f4 [100, 80]
0.14397262 -0.20813903 -0.16893305 0.024682947 0.31890172 -0.0071370564 -0.03405209 0.21226485
-0.020780744 0.027617224 0.11948797 0.058147606 -0.08993575 -0.04656298 -0.04674556 0.30718315
0.056381878 0.36722213 0.08907551 0.019019462 0.1044062 0.18955234 -0.2728389 0.2148576
-0.19099072 0.035894997 -0.3318776 -0.18118888 0.055229273 0.08089752 -0.023227226 -0.16085434
0.00647804 0.29375765 -0.06497522 -0.18681082 -0.23808789 0.1526788 -0.15752667 0.07523927
-0.19946691 -0.056889325 0.05187486 -0.045333926 -0.022999968 0.07023661 -0.43136695 -0.38034657
-0.06931955 0.38764623 0.011095884 0.3122856 0.0012063443 0.005396349 -0.19940281 0.09319763
-0.28220364 0.1644037 -0.044354502 -0.005601163 -0.32272795 0.041450024 0.056339923 0.09317287
0.17091343 -0.21392481 0.026491793 -0.36944476 0.012417006 0.08378793 -0.51930064 0.0113327755
-0.05664313 0.30634794 0.10512443 0.6006633 -0.5083385 -0.03858912 -0.104985386 -0.06418924
-0.322735 0.28076133 0.14721811 -0.040090095 0.26489383 -0.09157888 0.07383481 0.22468233
0.09869772 -0.10720191 -0.12671243 -0.05925754 -0.26526392 0.09683381 0.014611114 0.1647755
-0.07531584 0.20652324 0.095398016 0.048994586 -0.03887975 -0.26615295 -0.26386818 0.21963719
0.08966408 0.0874376 0.46825114 -0.16590157 0.20137356 0.11278263 -0.01233179 0.096662685
-0.043601 -0.16771315 -0.5322009 -0.17848743 -0.31538576 0.19877024 -0.08794478 -0.092169434
0.039951056 -0.08732972 0.37394813 0.024154244 0.21702705 0.0285277 0.34312835 0.18241842
0.0086831 -0.5597736 0.09228058 -0.09736881 -0.050124865 0.074299276 -0.46056712 0.037499562
-0.051549807 0.16225708 0.057086 0.06504937 -0.07917408 -0.49317035 -0.064967506 -0.43335143
-0.107217304 -0.15612714 -0.12679888 -0.07175851 0.018299459 0.036303367 0.034753535 -0.0896093
-0.18220133 0.26420546 0.042725477 0.07423689 0.39959666 -0.071128815 -0.0632874 -0.059873346
0.11538011 -0.20595382 -0.20563716 0.3364337 -0.10377753 -0.45464817 -0.009320779 0.58681166
-0.13188298 0.004777636 -0.17602883 0.103313364 -0.32673785 -0.086288005 0.085418954 -0.4595773
0.051787753 0.15410963 0.09361879 -0.036949784 0.0428213 -0.24545 -0.48730144 0.0906938
0.39988416 -0.08371983 -0.36750367 -0.074721724 0.1390482 0.067433365 -0.06433955 0.04443045
-0.09702921 -0.14604643 0.0014732176 -0.15070055 0.04626223 0.3607963 0.2311365 0.013233202
2.263847e-05 0.110411614 -0.255882 -0.038006492 -0.19591066 -0.022973146 0.19568764 -0.033050627
-0.03691204 -0.09739429 0.03908292 -0.22954689 -0.022284016 0.16018255 0.16286124 -0.011482829
-0.27292418 0.25791094 -0.056479566 -0.10669232 0.08302938 -0.4577599 0.055724274 -0.002451241
-0.28290218 -0.2775351 -0.27098212 0.620737 -0.037301976 -0.23935676 -0.11637609 -0.24142879
0.13720277 -0.40733096 0.568128 -0.41316614 0.014386693 -0.10004001 0.020426044 0.032848187
-0.0178592 0.00078277657 -0.14400445 -0.008474663 0.008802036 0.282319 0.081148915 -0.020235606
0.103162214 -0.03450123 -0.14918655 -0.10948914 0.012531279 0.05830025 -0.0086444495 -0.15974553
00000000: 8f6d 133e 6622 55be c9fc 2cbe e433 ca3c
00000010: 1647 a33e f8dd e9bb 347a 0bbd f55b 593e
00000020: 613c aabc 843d e23c 1cb6 f43d 2f2c 6e3d
00000030: 3c30 b8bd d3b8 3ebd 4678 3fbd 1c47 9d3e
00000040: aff0 663d 8a04 bc3e 396d b63d b4ce 9b3c
00000050: ebd2 d53d 021a 423e 8ab1 8bbe a103 5c3e
00000060: 1293 43be a206 133d dceb a9be 9489 39be
00000070: 1738 623d 99ad a53d 0647 bebc 00b7 24be
00000080: bd45 d43b 6767 963e ba11 85bd 564b 3fbe
00000090: 50cd 73be d557 1c3e ac4e 21be 0c17 9a3d
000000a0: 0e41 4cbe c804 69bd bc7a 543d 11b0 39bd
000000b0: 6e6a bcbc 36d8 8f3d 21dc dcbe c9bc c2be
000000c0: 69f7 8dbd 9179 c63e 83cb 353c e6e3 9f3e
000000d0: 331e 9e3a dbd3 b03b 4030 4cbe 66de be3d
000000e0: ff7c 90be 7259 283e 11ad 35bd f689 b7bb
000000f0: 993c a5be 80c7 293d b1c4 663d 6bd1 be3d
00000100: ee03 2f3e 1b0f 5bbe 5105 d93c dd27 bdbe
00000110: b370 4b3c 0299 ab3d e3f0 04bf 1bad 393c
00000120: a002 68bd a3d9 9c3e 7a4b d73d 12c5 193f
00000130: 7922 02bf a00f 1ebd 9402 d7bd a675 83bd
00000140: 863d a5be f3bf 8f3e 58c0 163e 8335 24bd
00000150: 2aa0 873e b58d bbbd b436 973d 2013 663e
00000160: 0822 ca3d ad8c dbbd e7c0 01be 09b8 72bd
00000170: acd0 87be ce50 c63d 7463 6f3c e9ba 283e
00000180: 313f 9abd d47a 533e 0960 c33d 8cae 483d
00000190: 5f40 1fbd 3345 88be bb19 87be 92e8 603e
000001a0: cda1 b73d 7c12 b33d 9dbe ef3e 1ae2 29be
000001b0: df34 4e3e 94fa e63d 470b 4abc 16f7 c53d
000001c0: f696 32bd ffbc 2bbe 513e 08bf 69c5 36be
000001d0: 3e7a a1be 6d8a 4b3e 651c b4bd 54c3 bcbd
000001e0: b8a3 233d edd9 b2bd 2176 bf3e 1fdf c53c
000001f0: 573c 5e3e ecb2 e93c 85ae af3e e5cb 3a3e
00000200: 9043 0e3c 534d 0fbf 9afd bc3d 4c69 c7bd
00000210: bb4f 4dbd 382a 983d 74cf ebbe 2499 193d
00000220: e425 53bd b826 263e 02d3 693d 9b38 853d
00000230: 0526 a2bd d380 fcbe af0d 85bd 3de0 ddbe
00000240: bf94 dbbd cbdf 1fbe 91d7 01be 20f6 92bd
00000250: bfe8 953c d7b2 143d b959 0e3d 1585 b7bd
00000260: fc92 3abe f045 873e e900 2f3d 8309 983d
00000270: ef97 cc3e fcab 91bd d39c 81bd c13d 75bd
00000280: 684c ec3d 8fe5 52be 8c92 52be 0a41 ac3e
00000290: 5089 d4bd a5c7 e8be 2eb6 18bc 4a39 163f
000002a0: 550c 07be b78d 9c3b e740 34be f595 d33d
000002b0: 2f4a a7be c4b7 b0bd 22f0 ae3d b74d ebbe
000002c0: 651f 543d eace 1d3e 35bb bf3d a858 17bd
000002d0: 6365 2f3d 3f57 7bbe 937f f9be acbd b93d
000002e0: 9ebd cc3e 4d75 abbd 7129 bcbe b407 99bd
000002f0: a762 0e3e 811a 8a3d 74c4 83bd b4fc 353d
00000300: 40b7 c6bd 328d 15be fb18 c13a 3f51 1abe
00000310: 777d 3d3d 4bba b83e 0caf 6c3e 12d0 583c
00000320: bfe7 bd37 7c1f e23d f702 83be b2ac 1bbd
00000330: ce9c 48be 2e32 bcbc 5762 483e 1860 07bd
00000340: 1431 17bd a876 c7bd 6915 203d 570e 6bbe
00000350: f88c b6bc e506 243e 19c5 263e 7a22 3cbc
00000360: b8bc 8bbe e70c 843e 1e57 67bd 8181 dabd
00000370: 4f0b aa3d 815f eabe 233f 643d 00a5 20bb
00000380: 8ed8 90be 1519 8ebe 2bbe 8abe 9fe8 1e3f
00000390: f5c9 18bd f019 75be 9656 eebd 1c39 77be
000003a0: e27e 0c3e af8d d0be d670 113f 838a d3be
000003b0: 2ab6 6b3c c7e1 ccbd 8554 a73c d28b 063d
000003c0: 754d 92bc 3f33 4d3a e775 13be 50d9 0abc
000003d0: 6a36 103c 1e8c 903e 6731 a63d 24c5 a5bc
000003e0: b646 d33d 2951 0dbd 5cc4 18be d83b e0bd
000003f0: fe4f 4d3c 3ecc 6e3d 73a1 0dbc 5594 23be

fc1.bias f4 [100]
0.036454335 0.14163464 0.02762578 -0.10348428 0.16427651 0.10124156 0.11794586 0.094200745
0.21336447 -0.07942297 -0.025484847 -0.064330325 0.023155615 0.06356775 0.044380806 0.071763955
-0.10018173 -0.06270722 -0.05061409 -0.11774383 0.105926394 0.06858286 0.0621105 -0.18935212
0.0071885367 0.021367395 -0.019675512 0.15709603 -0.106813066 -0.10413397 -0.053382907 -0.09859569
0.013364844 -0.048692927 -0.009313819 0.0746146 0.05955693 -0.057996884 0.0052714837 -0.015361081
-0.046960454 -0.039130174 -0.07728181 -0.07647234 -0.07688742 -0.15646398 -0.22395997 -0.10508963
0.04331784 0.04260571 0.20888859 0.22317491 0.03201059 -0.09271047 -0.09721411 0.22469743
-0.06280572 -0.05177978 0.022575404 0.08648219 0.002061746 -0.12426533 -0.12129089 -0.034541354
0.05553224 -0.039235655 -0.08184872 -0.027255008 0.12913923 0.26657894 0.20427443 0.057460003
0.12125931 -0.15199023 -0.06984665 0.18004139 -0.051406078 -0.0658872 -0.03939472 -0.07355109
0.093666814 -0.04685896 -0.06392926 -0.046416428 0.29821593 0.04961977 0.067617804 0.06394285
-0.05575513 -0.10116108 -0.14250281 0.20844825 0.16135061 -0.0702403 0.12387895 -0.0047418475
-0.082128316 0.034967933 -0.16529188 0.024649711
00000000: 2451 153d ac08 113e 764f e23c 91ef d3bd
00000010: 1a38 283e bc57 cf3d 998d f13d 52ec c03d
00000020: 377c 5a3e 83a8 a2bd 99c5 d0bc 9ebf 83bd
00000030: d8b0 bd3c cf2f 823d a6c8 353d fbf8 923d
00000040: 142c cdbd a56c 80bd b850 4fbd ad23 f1bd
00000050: f0ef d83d 2c75 8c3d 9467 7e3d 86e5 41be
00000060: d18d eb3b ad0a af3c 8a2e a1bc c8dd 203e
00000070: cfc0 dabd 3144 d5bd 09a8 5abd 8aec c9bd
00000080: 38f8 5a3c 3c72 47bd fd98 18bc 8acf 983d
00000090: f8f1 733d 248e 6dbd 69bc ac3b 0bad 7bbc
000000a0: 9b59 40bd f646 20bd ed45 9ebd 889d 9cbd
000000b0: 2777 9dbd 1838 20be c355 65be 3b39 d7bd
000000c0: 0c6e 313d 5383 2e3d e4e6 553e f787 643e
000000d0: 891d 033d fdde bdbd 3118 c7bd 1517 663e
000000e0: 49a0 80bd 0917 54bd 0ef0 b83c 931d b13d
000000f0: 5c1e 073b d27e febd 5c67 f8bd 3c7b 0dbd
00000100: c675 633d 91b5 20bd 4da0 a7bd e545 dfbc
00000110: 133d 043e 097d 883e 512d 513e 2e5b 6b3d
00000120: cd56 f83d 54a3 1bbe c30b 8fbd c55c 383e
00000130: 2e8f 52bd deef 86bd 5c5c 21bd f4a1 96bd
00000140: 63d4 bf3d 2eef 3fbd 58ed 82bd 271f 3ebd
00000150: c2af 983e 1a3e 4b3d 347b 8a3d 78f4 823d
00000160: 7e5f 64bd 8a2d cfbd 42ec 11be 7573 553e
00000170: 1839 253e 25da 8fbd 3fb4 fd3d 8061 9bbb
00000180: e432 a8bd 893a 0f3d 4642 29be 31ee c93c

fc2.weight f4 [361, 100]
0.035652727 -0.12181088 -0.07397399 0.05804466 0.0426755 -0.025437359 0.30687004 -0.024820194
0.0952584 -0.050495144 -0.09935316 -0.021035863 0.24986868 -0.06133668 -0.057746854 -0.03390478
0.050576136 -0.04074438 0.10839106 0.010171473 -0.06256024 3.3106946e-05 0.07947156 -0.066781834
-0.033846438 0.053689264 0.14770687 0.08691208 -0.042908076 0.1220965 -0.011090258 -0.10245087
-0.09546391 0.018229611 -0.013983242 -0.046954673 0.081280984 0.08469673 0.045791708 -0.06604067
-0.012730016 -0.03367288 0.06924517 0.1744467 0.09307095 0.043860536 -0.0078060185 0.025712216
0.25018704 -0.03559671 -0.045610365 0.18320252 -0.06302496 -0.08329306 -0.044597954 -0.107609294
-0.038416915 0.31116512 -0.038437467 0.023824802 0.15956639 0.07883567 0.022905685 0.094965585
-0.02968999 -0.08700983 0.16714849 -0.076044224 0.098669074 0.26970086 0.11875096 -0.09896465
-0.16906486 -0.041733693 -0.020030985 0.25897604 -0.06248636 -0.002954959 -0.10996327 -0.05842882
0.06856474 -0.08585031 0.08650567 -0.03414926 0.28459367 -0.061083175 -0.2139396 -0.09585326
-0.049530536 -0.054321904 -0.05879808 -0.16574848 0.041003194 -0.0539067 0.08758915 -0.009190621
-0.06834061 0.09245962 -0.11574326 0.007663777 -0.011389431 -0.13377868 -0.09830221 0.07793468
-0.06099257 -0.03685494 -0.024120728 -0.114139125 -0.08204007 -0.02086324 -0.027086228 0.032234043
0.039356083 0.044549182 -0.057641286 -0.106804684 -0.036310118 -0.06918321 0.014803843 0.015391816
-0.07260097 -0.055551954 0.02811159 -0.11016389 -0.033703394 0.009873908 0.07134354 -0.13998358
0.0479667 0.061261676 -0.027690718 0.01830655 -0.005449177 0.05387735 -0.018008739 0.03758001
0.007416802 -0.018683301 -0.013834202 -0.035466596 -0.10115338 -0.040583532 0.04984858 -0.06873242
-0.075987555 0.07303384 -0.0002458299 0.034820557 -0.07861404 -0.09726522 -0.13107856 0.0074862135
0.05207429 -0.08970012 -0.08424505 0.0008865807 -0.0006101139 -0.06527449 -0.08621129 0.037982117
-0.085475214 0.027298516 0.03830631 -0.084414385 0.0036341916 -0.06664628 0.023869682 -0.061130635
0.053163953 -0.04111308 0.0052151987 -0.043938592 -0.07305873 0.0054013035 0.061741997 0.080808885
-0.05342674 0.079103075 -0.044143766 -0.0359927 0.05318133 -0.092590675 -0.091658555 -0.092477016
-0.02937095 -0.03678697 0.0068684383 -0.079500824 0.05843141 -0.01046856 -0.087974295 -0.020958167
-0.058192 -0.091523394 -0.04263297 -0.06472876 -0.073339134 0.032718327 0.0030619286 -0.052086934
-0.047183722 -0.06488006 -0.101140596 -0.084389575 -0.035682984 0.06473924 -0.11193251 0.07353561
-0.04467117 0.07680912 0.01750368 0.057690926 0.04671688 -0.036668982 0.055825934 -0.018021269
-0.031017702 -0.042366214 0.09723755 -0.07432275 0.036413565 -0.11670824 0.07549882 -0.013975651
0.018094413 0.0066860775 0.05575607 0.03623255 -0.0122057805 0.078578554 -0.010567762 -0.039513696
-0.13802953 0.07257836 0.09140042 0.09280794 -0.05952776 -0.02521112 0.038181886 -0.021065257
0.026886154 0.06678374 -0.083191864 -0.022971788 0.039130993 0.02532329 0.075253695 -0.013619873
-0.0799374 0.06827299 -0.10029144 -0.040109895 0.034027185 -0.0066019804 -0.10078457 0.014110342
00000000: 9808 123d fc77 f9bd ad7f 97bd 3dc0 6d3d
00000010: 81cc 2e3d 0262 d0bc 121e 9d3e b853 cbbc
00000020: d616 c33d ffd3 4ebd ab79 cbbd 6753 acbc
00000030: 93dd 7f3e 2c3c 7bbd f787 6cbd bddf 0abd
00000040: ec28 4f3d 94e3 26bd 22fc dd3d 40a6 263c
00000050: 951f 80bd 50dc 0a38 fcc1 a23d eac4 88bd
00000060: 90a2 0abd 46e9 5b3d 7840 173e f6fe b13d
00000070: 61c0 2fbd bb0d fa3d eab3 35bc c3d1 d1bd
00000080: 9582 c3bd 4456 953c f819 65bc 8b53 40bd
00000090: a576 a63d 7b75 ad3d 1690 3b3d 5540 87bd
000000a0: 8f91 50bc 93ec 09bd 69d0 8d3d 28a2 323e
000000b0: fb9b be3d 1ba7 333d a1c9 ffbb 6da2 d23c
000000c0: 8418 803e dbcd 11bd efd1 3abd 7199 3b3e
000000d0: 3b13 81bd 8d95 aabd 58ac 36bd 4362 dcbd
000000e0: 0e5b 1dbd 0951 9f3e 9b70 1dbd 3b2c c33c
000000f0: 5f65 233e 9974 a13d b4a4 bb3c 517d c23d
00000100: 6c38 f3bc 3632 b2bd f928 2b3e 13bd 9bbd
00000110: 0313 ca3d 3b16 8a3e b433 f33d faad cabd
00000120: 571f 2dbe f3f0 2abd 0518 a4bc 8298 843e
00000130: b3f1 7fbd fca7 41bb 6c34 e1bd 0f53 6fbd
00000140: ac6b 8c3d 4ad2 afbd e229 b13d 18e0 0bbd
00000150: 43b6 913e 5a32 7abd fc12 5bbe b74e c4bd
00000160: 88e0 4abd a580 5ebd 41d6 70bd f8b9 29be
00000170: f7f2 273d 46cd 5cbd f161 b33d 4294 16bc
00000180: 29f6 8bbd 785b bd3d cd0a edbd 6c20 fb3b
00000190: bc9a 3abc 47fd 08be ab52 c9bd 389c 9f3d
000001a0: 58d3 79bd 35f5 16bd d598 c5bc c6c1 e9bd
000001b0: a004 a8bd 63e9 aabc f0e3 ddbc d807 043d
000001c0: d833 213d 3479 363d 4519 6cbd 6abc dabd
000001d0: ebb9 14bd edaf 8dbd d18b 723c f52d 7c3c
000001e0: d1af 94bd 728a 63bd 474a e63c 9b9d e1bd
000001f0: 920c 0abd 2cc6 213c 901c 923d db57 0fbe
00000200: bb78 443d 86ed 7a3d a5d7 e2bc 9ef7 953c
00000210: 038f b2bb 7fae 5c3d 1087 93bc 7fed 193d
00000220: a508 f33b b90d 99bc d9a8 62bc 6c45 11bd
00000230: 8129 cfbd eb3a 26bd 062e 4c3d 95c3 8cbd
00000240: 5d9f 9bbd c492 953d bbe2 80b9 00a0 0e3d
00000250: 6600 a1bd fd32 c7bd 7539 06be e94e f53b
00000260: da4b 553d b2b4 b7bd ab88 acbd 6c69 683a
00000270: 0df0 1fba a2ae 85bd 8b8f b0bd 2393 1b3d
00000280: a10d afbd 23a1 df3c 14e7 1c3d 73e1 acbd
00000290: 9e2b 6e3b d87d 88bd 5a8a c33c 1e64 7abd
000002a0: 72c2 593d 3066 28bd 42e4 aa3b f4f8 33bd
000002b0: d19f 95bd 6bfd b03b 2de5 7c3d 217f a53d
000002c0: ffd5 5abd cb00 a23d 18d0 34bd 156d 13bd
000002d0: abd4 593d 2ea0 bdbd 7bb7 bbbd 9764 bdbd
000002e0: 599b f0bc efad 16bd a310 e13b 54d1 a2bd
000002f0: c655 6f3d 5384 2bbc de2b b4bd 76b0 abbc
00000300: bc5a 6ebd 9e70 bbbd e99f 2ebd 8390 84bd
00000310: d432 96bd a703 063d a3aa 483b 1c59 55bd
00000320: b843 41bd d6df 84bd cd22 cfbd 71d4 acbd
00000330: 5228 12bd 0296 843d df3c e5bd d799 963d
00000340: 1ef9 36bd 1a4e 9d3d e163 8f3c 524d 6c3d
00000350: 335a 3f3d 3732 16bd bca9 643d 57a1 93bc
00000360: d618 febc 3288 2dbd 7b24 c73d 8736 98bd
00000370: 6426 153d bb04 efbd 209f 9a3d 21fa 64bc
00000380: bc3a 943c e216 db3b 7a60 643d 9568 143d
00000390: c1fa 47bc cbed a03d 6824 2dbc 1dd9 21bd
000003a0: 9d57 0dbe f7a3 943d 2530 bb3d 1712 be3d
000003b0: 61d3 73bd 8d87 cebc 9c64 1c3d 0c91 acbc
000003c0: 5a40 dc3c eac5 883d 7f60 aabd 552f bcbc
000003d0: d247 203d ca72 cf3c 9c1e 9a3d e325 5fbc
000003e0: 38b6 a3bd b6d2 8b3d 9965 cdbd 464a 24bd
000003f0: 1760 0b3d 6d55 d8bb 2468 cebd 102f 673c

fc2.bias f4 [361]
-0.012495881 -0.058660824 -0.03897122 0.029564895 0.031656798 0.0379744 0.01808642 -0.09284891
-0.0071832994 0.043942206 0.0027317267 -0.035506174 0.042331774 0.035827827 -0.021364119 -0.060880046
-0.01860239 -0.047808837 -0.04454956 0.32540363 0.01676183 0.07142952 -0.063518494 0.032593384
0.061045155 0.052633125 -0.14126895 -0.11544908 0.012689879 -0.04050492 0.062202767 -0.083037235
-0.12762089 0.09022204 0.0886327 -0.15394364 -0.018571826 0.06317185 0.21146715 -0.05592048
0.02766434 0.08705928 0.052346904 0.02126593 -0.26927564 0.07758689 0.017833147 -0.09189569
0.049598526 0.059102494 0.0780756 -0.009327215 0.10328517 0.046001647 -0.020787744 -0.032004893
-0.0016457572 0.04355434 0.061206542 0.07717676 -0.018118504 0.010323064 -0.07089456 0.061947655
-0.031801566 0.020852406 0.14093526 -0.12947737 0.110389866 0.055343118 -0.014649042 -0.058792263
0.023625147 -0.13377735 0.010879508 -0.0687761 -0.016072052 -0.06266611 -0.062300924 -0.032710206
-0.0968654 -0.073627815 -0.060474895 -0.09998262 -0.10187189 0.096635036 -0.010578282 0.13438292
0.06607823 0.0009189772 -0.00498796 -0.12539656 -0.072222866 0.035589103 -0.12980175 -0.06300995
-0.12907027 -0.080839425 0.007847681 0.048561182 0.009009968 0.11458086 0.0052144025 0.051216155
-0.11171244 -0.043925434 0.012200157 -0.1367794 -0.12786332 0.009045045 0.057754703 -0.11452995
-0.013430121 0.050781276 0.26077703 0.021227902 0.123083465 0.022714255 0.05540568 -0.042438876
-0.033369552 -0.13019457 -0.021155255 0.047590867 -0.026061608 -0.083394215 0.05787177 -0.0671083
0.11167426 0.04440441 -0.03883614 -0.0035018974 -0.1032042 0.024410995 0.02054851 0.087230176
-0.050010297 -0.07105904 0.05258517 -0.1568436 0.020813629 -0.08258853 0.10084608 -0.08322403
0.031254444 -0.077473894 0.06854748 0.109106764 -0.047165107 -0.1086441 -0.04367389 0.05670791
-0.006947179 -0.053037353 0.07443438 0.09713219 0.039509635 -0.07081314 -0.021324055 -0.053433947
-0.12987705 -0.004793993 -0.11813783 0.049141835 -0.06160068 -0.05361378 -0.06991277 -0.0003776673
-0.049570072 -0.064577825 -0.035202973 0.4217547 -0.00074355985 -0.023176644 -0.0024952246 -0.11020661
0.09967692 -0.01202201 0.0588829 0.008434956 -0.018159145 0.00854929 0.08157056 -0.14272346
0.021791108 -0.004508955 -0.11592155 -0.035179045 -0.020183558 -0.099680096 0.43052098 -0.060054965
0.16449967 0.024694985 0.03820697 -0.07199757 -0.02092319 0.061674826 -0.047256954 0.04976882
-0.07492387 -0.034055516 -0.057334874 0.040076274 0.36602882 0.021432294 0.007267477 0.029571014
-0.13402298 0.3037899 -0.117245086 -0.055328105 -0.13951783 -0.14574024 0.06419547 0.0687288
-0.012217585 0.04817469 0.041194007 0.08479308 0.046001654 -0.14353462 0.081727296 0.043256115
-0.06943614 -0.027885387 0.04838831 -0.06292831 0.03261417 -0.03503724 -0.005160715 -0.041216075
-0.008844294 0.019964742 -0.033568073 -0.12675281 8.6075954e-05 -0.0066594766 -0.05746467 -0.008985507
0.050070986 -0.051588506 -0.13206372 0.008929458 -0.08639968 -0.11534374 0.082941145 0.7160346
-0.07593409 -0.026424374 -0.013773259 0.03973968 -0.15208735 0.010348411 -0.050674416 0.27960595
00000000: 86bb 4cbc 5546 70bd 49a0 1fbd 1432 f23c
00000010: 8faa 013d 0b8b 1b3d f929 943c 9227 bebd
00000020: e261 ebbb befc 333d c506 333b ec6e 11bd
00000030: 1564 2d3d 33c0 123d ce03 afbc 5b5d 79bd
00000040: 0a64 98bc 33d3 43bd 9979 36bd 4e9b a63e
00000050: 1b50 893c a449 923d fc15 82bd a480 053d
00000060: 7c0a 7a3d d595 573d cfa8 10be 9170 ecbd
00000070: 36e9 4f3c 7de8 25bd 54c8 7e3d 6d0f aabd
00000080: 0daf 02be 55c6 b83d 1085 b53d 67a3 1dbe
00000090: f123 98bc 3e60 813d d88a 583e e00c 65bd
000000a0: 53a0 e23c 234c b23d b569 563d e335 ae3c
000000b0: 7fde 89be e0e5 9e3d d216 923c cf33 bcbd
000000c0: d327 4b3d 7515 723d 1ae6 9f3d 2dd1 18bc
000000d0: 2d87 d33d 396c 3c3d 0f4b aabc 9017 03bd
000000e0: 73b6 d7ba 0966 323d b6b3 7a3d d90e 9e3d
000000f0: 426d 94bc 1222 293c 2b31 91bd d3bc 7d3d
00000100: 5c42 02bd aad2 aa3c 5551 103e b795 04be
00000110: 1514 e23d 77af 623d 8902 70bc 28d0 70bd
00000120: 8689 c13c eefc 08be f73f 323c 7cda 8cbd
00000130: 89a9 83bc 1757 80bd 412f 7fbd 23fb 05bd
00000140: 5e61 c6bd 2eca 96bd 86b4 77bd b0c3 ccbd
00000150: 36a2 d0bd 97e8 c53d 8850 2dbc ad9b 093e
00000160: 0654 873d 84e7 703a 0b72 a3bb f567 00be
00000170: 95e9 93bd e1c5 113d c0ea 04be 5c0b 81bd
00000180: ff2a 04be 248f a5bd 8f93 003c 17e8 463d
00000190: 8b9e 133c 5fa9 ea3d 94dd aa3b 08c8 513d
000001a0: 7ec9 e4bd 28eb 33bd 2be3 473c e60f 0cbe
000001b0: 9aee 02be ab31 143c 3290 6c3d ae8e eabd
000001c0: 030a 5cbc 0700 503d 9184 853e 23e6 ad3c
000001d0: 2f13 fc3d 3f13 ba3c 11f1 623d 63d4 2dbd
000001e0: 83ae 08bd ba51 05be c94d adbc a4ee 423d
000001f0: 277f d5bc 96ca aabd f30a 6d3d 1470 89bd
00000200: 79b5 e43d 66e1 353d a512 1fbd 1780 65bb
00000210: b95c d3bd 91f9 c73c 5955 a83c bca5 b23d
00000220: 99d7 4cbd 6787 91bd 8c63 573d 9c9b 20be
00000230: 5881 aa3c 2d24 a9bd 6488 ce3d 5c71 aabd
00000240: a904 003d a2aa 9ebd 9f62 8c3d 5e73 df3d
00000250: 3330 41bd cc80 debd 65e3 32bd 8e46 683d
00000260: 29a5 e3bb b23d 59bd 0d71 983d 3eed c63d
00000270: dbd4 213d 7b06 91bd c9af aebc 8edd 5abd
00000280: 7dfe 04be ee16 9dbb 3ff2 f1bd f348 493d
00000290: ff50 7cbd 1f9a 5bbd 6d2e 8fbd a601 c6b9
000002a0: fd09 4bbd 6141 84bd fe30 10bd 3bf0 d73e
000002b0: 75eb 42ba f2dc bdbc ec86 23bb 01b4 e1bd
000002c0: 6a23 cc3d f7f7 44bc 322f 713d c532 0a3c
000002d0: 7dc2 94bc 5212 0c3c 770e a73d 1926 12be
000002e0: 4483 b23c dbbf 93bb 4768 edbd e717 10bd
000002f0: fd57 a5bc 1425 ccbd 3f6d dc3e 32fc 75bd
00000300: 9a72 283e 234d ca3c e97e 1c3d 7673 93bd
00000310: 1c67 abbc be9e 7c3d 8290 41bd 64da 4b3d
00000320: b071 99bd cc7d 0bbd f9d7 6abd 0527 243d
00000330: 2168 bb3e c792 af3c 0424 ee3b e93e f23c
00000340: 523d 09be 5a8a 9b3e 311e f0bd b99f 62bd
00000350: c3dd 0ebe ee3c 15be ea78 833d afc1 8c3d
00000360: 442c 48bc d352 453d 0cbb 283d ffa7 ad3d
00000370: 3b6c 3c3d bdfa 12be a460 a73d 532d 313d
00000380: 8934 8ebd e56f e4bc d232 463d 8fe0 80bd
00000390: 7096 053d 3583 0fbd 371b a9bb 30d2 28bd
000003a0: a8e7 10bc 198d a33c ad7e 09bd 7dcb 01be
000003b0: ad83 b438 bd37 dabb 1360 6bbd f337 13bc
000003c0: 3c17 4d3d 784e 53bd b63b 07be dd4c 123c
000003d0: 51f2 b0bd 5739 ecbd 0cdd a93d 0b4e 373f
000003e0: 5583 9bbd ee77 d8bc 3ca9 61bc 13c6 223d
000003f0: c9bc 1bbe 628c 293c fa8f 4fbd 8328 8f3e
